outputs/2025-03-19/08-54-45/model_state_acc_0.0852_round_0.pth (torch, 251962 bytes, 10 tensors)

conv1.weight f4 [6, 3, 5, 5]
0	0x3ddb82fd	0.107183434
1	0xbd48e616	-0.049047552
2	0x3dd35701	0.10319329
3	0x3d658940	0.056039095
4	0x37924cf1	1.7440385e-05
5	0xbd37f9b2	-0.044915862
6	0xbcb6cff4	-0.022315957
7	0xbda4cbf3	-0.08046713
8	0xbd423690	-0.047415316
9	0x3d321f06	0.043486618
10	0x3c6380d8	0.013885699
11	0xbd0c9adc	-0.034327373
12	0xbde79e3a	-0.11309476
13	0x3da1107b	0.078644715
14	0x3de01402	0.10941316
15	0x3ce41f9d	0.027847106
16	0x3c7ad3db	0.015309299
17	0x3d4bb4b3	0.049732875
18	0x3d7e0e22	0.062025197
19	0xbd732958	-0.0593656
20	0x3d4d255a	0.05008445
21	0x3d090ccf	0.03345948
22	0xbd96fc16	-0.073723
23	0xbd23b7ca	-0.039970197
24	0x3d1643a6	0.03668561
25	0x3d85ce88	0.06533533
26	0x3c7e74c1	0.015530766
27	0x3d507625	0.05089392
28	0x39b6062c	0.00034718344
29	0xbd65778b	-0.05602221
30	0x3c8924a4	0.016741104
31	0xbdbd8c27	-0.092552476
32	0x3d3d8575	0.046269853
33	0xbce3023b	-0.027711025
34	0x3d3801a9	0.04492346
35	0x3d2b7335	0.041857917
36	0xbd93bcf8	-0.07213777
37	0xbde130bc	-0.109956235
38	0x3c20f860	0.009824842
39	0x3de182dd	0.11011288
40	0x3cf51c72	0.02992079
41	0x3cb41306	0.021981727
42	0xbda2c85d	-0.079483725
43	0x3cbd4815	0.02310566
44	0xbd73b91a	-0.0595027
45	0xbdcd0012	-0.10009779
46	0xbd631034	-0.055435374
47	0xbb995e5c	-0.004680438
48	0xbce10664	-0.027468868
49	0x3dd7c0fe	0.10534857
50	0xbd89502a	-0.06704743
51	0x3c614f23	0.013751778
52	0xbc1a06e3	-0.009401056
53	0x3da33fed	0.07971177
54	0xbd858b89	-0.06520755
55	0xbdbb1bc3	-0.091361545
56	0x3dbbd118	0.09170741
57	0xbd372cfb	-0.04472063
58	0xbda80397	-0.0820381
59	0xbcd2b104	-0.025719173
60	0x3d8684b7	0.06568282
61	0xb87e43db	-6.0621514e-05
62	0x3dec1b04	0.1152859
63	0x3dc65747	0.096846156
64	0x3c42546d	0.011860949
65	0x3db1305a	0.086518005
66	0x3dc290a8	0.09500247
67	0xbce95775	-0.028484086
68	0xbdb4ce01	-0.088283546
69	0x3ddce95f	0.107866995
70	0xbcba94e9	-0.022776084
71	0xbdccb995	-0.099963345
72	0xbd807e8a	-0.062741354
73	0xbd604893	-0.054756712
74	0xbd68a6e7	-0.056799795
75	0xbdcb67bf	-0.09931897
76	0x3de1202e	0.10992466
77	0x3de5d132	0.112215415
78	0xbd95c15d	-0.07312272
79	0x3da95e9a	0.08269997
80	0x3d4d731f	0.050158616
81	0x3c7a72eb	0.015286188
82	0xbcc79203	-0.024361616
83	0xbcc0dba5	-0.023542235
84	0xbdb337aa	-0.087508515
85	0x3cd02220	0.025406897
86	0x3d4b304d	0.04960661
87	0xbc9f9170	-0.01947853
88	0xbd8fba37	-0.070179395
89	0xbd289a0e	-0.041162543
90	0x3d0831e8	0.03325072
91	0xbde36aaa	-0.11104329
92	0xbc1bf254	-0.009518225
93	0xbd05c356	-0.03265699
94	0x3d2c5d4b	0.04208116
95	0x3ccdf89f	0.025142966
96	0xbccd18ed	-0.0250363
97	0xbdc9c547	-0.09852081
98	0x3c928e36	0.017890077
99	0xbd43144b	-0.047626775
100	0x3d0af123	0.033921372
101	0xbc7b9b55	-0.015356858
102	0xbdc4c3ed	-0.096076824
103	0x3daca5f2	0.08430089
104	0xbd9d0b42	-0.07668163
105	0xbc9551df	-0.018227516
106	0x3dcfcc62	0.10146405
107	0xbdbb6f77	-0.091521196
108	0xbd371450	-0.044697106
109	0xbd0c3f5d	-0.034240115
110	0xbd62953e	-0.05531811
111	0xbcf5c41c	-0.030000739
112	0xbdd3a380	-0.103339195
113	0xbd9973c3	-0.07492783
114	0xbda8526a	-0.08218844
115	0xbc630d7d	-0.013858196
116	0xbd871787	-0.06596284
117	0xbd61e2b9	-0.05514786
118	0x3b1708af	0.0023045947
119	0xbc9e8489	-0.019350307
120	0x3cb9695a	0.022633243
121	0x3c805d82	0.015669588
122	0x3de7b1a3	0.113131784
123	0x3d941728	0.07230979
124	0x3db0dace	0.08635484
125	0x3dc4a5ab	0.09601911
126	0x3d526ee1	0.051375274
127	0x3d8757bc	0.06608531
128	0x3cf146fb	0.029452791
129	0x3ce56622	0.028002802
130	0x3d3bd441	0.045856718
131	0xbda1ca4b	-0.078999124
132	0x3b09e2f7	0.0021039823
133	0x3d9b1a8f	0.07573425
134	0xbcdcecb6	-0.026968341
135	0x3d69e227	0.05710044
136	0xbd60af11	-0.054854456
137	0x3cd9435b	0.026521375
138	0xbd255344	-0.04036261
139	0x3de372e6	0.111058995
140	0xbdb8dd2f	-0.090265624
141	0xbd7e1aad	-0.06203716
142	0xbdc26794	-0.09492412
143	0xbcd160f8	-0.025558934
144	0x3c5d33c9	0.013501116
145	0xbc7bb394	-0.015362639
146	0x3d803bfc	0.06261441
147	0xbcdae030	-0.026718229
148	0xbd6f7f1b	-0.058470827
149	0x3dd3b2fd	0.10336874
150	0xbd788245	-0.06067111
151	0xbd9fe849	-0.07807977
152	0xbbac5b6b	-0.0052599213
153	0x3ddb51f3	0.1070899
154	0x3db86d47	0.09005218
155	0x3ce5c8fa	0.028049935
156	0x3d9587cf	0.07301294
157	0x3d2f7a32	0.042841144
158	0x3bf2e19f	0.00741215
159	0x3dab8020	0.08374047
160	0xbc166a43	-0.009180608
161	0xbb87538e	-0.0041298335
162	0xbcdbe27f	-0.0268414
163	0x3dd0de0e	0.101986036
164	0xbd207f60	-0.039183974
165	0xbd9300c6	-0.07177882
166	0x3cedc722	0.029025618
167	0x3d0674d8	0.032826275
168	0xbd2c7442	-0.04210306
169	0x3b2323ac	0.0024893088
170	0x3dbd7ad5	0.09251944
171	0xbd525d87	-0.051358726
172	0x3da640c3	0.08117821
173	0xbde55ab6	-0.11198942
174	0x3d82937f	0.06375789
175	0xbc9415a0	-0.018076718
176	0xbdd6671a	-0.10468884
177	0xbd8fb87f	-0.07017612
178	0xbde34180	-0.110964775
179	0x3ce4b6ad	0.027919138
180	0xbda8e76e	-0.08247267
181	0x3de139b2	0.10997333
182	0xbde6b1a4	-0.11264351
183	0xbd3959e1	-0.04525173
184	0xbd79a670	-0.060949743
185	0x3da6bd5c	0.08141586
186	0xbdbc37f7	-0.09190362
187	0xbd9713cd	-0.073768236
188	0xbd64c085	-0.055847663
189	0x3d73598d	0.059411574
190	0x3dd43854	0.10362306
191	0x3d932a66	0.07185821
192	0x3d100aaf	0.03516644
193	0x3db54f5a	0.08853026
194	0x3d1f100d	0.038833667
195	0xbbb72c81	-0.005590022
196	0x3ca7bc23	0.020475453
197	0x3db763a4	0.08954552
198	0x3bfed69e	0.007777049
199	0xbdbe9a7d	-0.0930681
200	0xbd3cc241	-0.046083692
201	0xbd850896	-0.06495778
202	0xbd7edaca	-0.062220372
203	0xbdb7a8c9	-0.0896774
204	0x3d54ba98	0.051935762
205	0x3de0294e	0.10945378
206	0xbd0c98ae	-0.034325294
207	0xba80077b	-0.0009767854
208	0x3d54cec5	0.051955003
209	0x3c29f08e	0.010372294
210	0x3dd58cd6	0.10427253
211	0x3db187be	0.08668469
212	0xbd9a91f1	-0.07547367
213	0x3d3c7b87	0.046016242
214	0xbdb05f72	-0.08611955
215	0xbc1fc608	-0.009751804
216	0xbddb4105	-0.10705761
217	0x3dad4569	0.084605046
218	0xbd99ed1a	-0.07515927
219	0x3c3530e6	0.011059022
220	0xbd15f9b1	-0.036615077
221	0xbddb7d2e	-0.107172355
222	0x3d5e1171	0.054215852
223	0xbd423552	-0.04741413
224	0x3d8ecf04	0.06973079
225	0x3dd28424	0.1027911
226	0xbd8a8b62	-0.067648664
227	0xbda7fc65	-0.08202437
228	0x3de5ead8	0.112264335
229	0xbdcda40c	-0.10041055
230	0x3d8d28ba	0.068925336
231	0x3d9bd2f6	0.07608597
232	0x3d844ec9	0.064603396
233	0xbc188b39	-0.009310537
234	0xbdafec7d	-0.085900284
235	0x3ce2a598	0.027666852
236	0x3c9071e6	0.017632436
237	0xbd88010f	-0.06640827
238	0xbd2f85cd	-0.04285221
239	0xbdbc4a8e	-0.09193908
240	0xbdd1e843	-0.102493785
241	0xbd2aae24	-0.04166998
242	0x3de98ad6	0.11403434
243	0x3db47a46	0.08812384
244	0x3ccc17f2	0.024913762
245	0x3dac4c62	0.08413006
246	0xbd616cf9	-0.055035565
247	0x3de2c1ca	0.110721186
248	0x3dcd6f62	0.1003101
249	0xbd97f960	-0.074206114
250	0x3d8032e2	0.06259705
251	0xbbd0fc65	-0.006377744
252	0x3d7559fe	0.059900276
253	0xbdc5b97b	-0.09654518
254	0x3d8c1887	0.06840616
255	0x3d0c2ab9	0.03422043

conv1.bias f4 [6]
0	0xbd2d0919	-0.042245004
1	0xbd4dfa10	-0.050287306
2	0x3daa9f0d	0.08331118
3	0x3ca02b45	0.019551883
4	0xbc3e7e01	-0.011626721
5	0x3ce647bc	0.028110377

conv2.weight f4 [16, 6, 5, 5]
0	0xbc979fad	-0.018508757
1	0xbd8265a1	-0.063670404
2	0xbda0aff0	-0.078460574
3	0x3d928818	0.07154864
4	0x3d0727c2	0.0329969
5	0x3cf4f4f1	0.029901953
6	0x3d020a04	0.031747833
7	0xbd47e302	-0.048800476
8	0xbd2648b9	-0.040596697
9	0xbd2d0cc5	-0.042248506
10	0xbc26524c	-0.010151457
11	0xbd1fe014	-0.039032057
12	0xbd895768	-0.067061245
13	0xbd0fc181	-0.03509665
14	0xbd641e0b	-0.055692714
15	0xbd745d00	-0.059659004
16	0xbb63ff43	-0.00347896
17	0xbd6ca460	-0.057773948
18	0x3cf90d0e	0.030401733
19	0xbcc318a1	-0.023815455
20	0xbd9fbda1	-0.07799841
21	0x3d6cd419	0.05781946
22	0xbc862ce4	-0.016378827
23	0x3d49cf9c	0.049270257
24	0x3ae95c72	0.001780404
25	0x3c928429	0.017885284
26	0xbcb766dd	-0.022387916
27	0x3d3eba6d	0.04656451
28	0x3d33cba9	0.043895397
29	0x3d334673	0.043768357
30	0x3d977e7a	0.0739717
31	0xbd75ce0c	-0.060010955
32	0xbd85e036	-0.065369055
33	0x3c4c350e	0.012463821
34	0x3bb7d660	0.0056102723
35	0xbc92a935	-0.01790295
36	0xbc983bfa	-0.018583287
37	0xbb9344ea	-0.004494299
38	0x3cb2bd44	0.021818765
39	0xbcddc8ee	-0.02707335
40	0xbc42ba2e	-0.011885209
41	0xbc88d686	-0.016703855
42	0xbb1450e4	-0.0022631222
43	0x3b8c773f	0.004286676
44	0xbd152176	-0.036408864
45	0xbc975d85	-0.01847721
46	0x3ce346db	0.027743747
47	0xbd84adc4	-0.06478456
48	0x3d8b3d7b	0.06798836
49	0x3cc22374	0.023698546
50	0x3cfef216	0.031121295
51	0x3d17b897	0.037041273
52	0xbd9e7556	-0.07737224
53	0x3d9ea1e5	0.07745723
54	0xbd9880ec	-0.07446465
55	0x3d55a5ae	0.052159958
56	0xbcc79f71	-0.02436802
57	0x3d92572e	0.071455345
58	0x3a93c0b2	0.0011272638
59	0xbcfd5f25	-0.030929158
60	0x3da28430	0.07935369
61	0xbd67e72c	-0.056616947
62	0x3d2bc4f5	0.04193588
63	0x3d7db860	0.06194341
64	0xbcc36d42	-0.02385581
65	0x3c8c9b2c	0.017163835
66	0x3cfb1a35	0.030652145
67	0x3da268ca	0.07930143
68	0x3cd8a188	0.026444212
69	0x3bff6684	0.0077942032
70	0x3d6fa028	0.058502346
71	0x3d79c7da	0.06098161
72	0xbc9bae82	-0.01900411
73	0x3d5fcad2	0.054636784
74	0x3c2e96e7	0.010656095
75	0x3d909bc4	0.0706096
76	0x3d2c0ea0	0.042006135
77	0xbc8d4a06	-0.017247211
78	0xbc066c11	-0.008204476
79	0xbd877719	-0.06614513
80	0xbd5335e8	-0.05156508
81	0xbd6cb61d	-0.057790864
82	0x3c14b112	0.00907542
83	0x3c5f2078	0.013618581
84	0x3d3cdc92	0.04610879
85	0xbda15c6e	-0.07878958
86	0x3c5ee1f8	0.01360368
87	0xbd0e1f60	-0.03469789
88	0xbb380acb	-0.0028082605
89	0xbc618e85	-0.013766889
90	0x3c9c75c6	0.019099128
91	0xbd01c03f	-0.03167748
92	0xbd6f8ff8	-0.05848691
93	0x3d44ed76	0.048078023
94	0x3d86e58a	0.0658675
95	0x3d0b6c2e	0.034038715
96	0xbd5b100a	-0.053482093
97	0x3cba2d6b	0.022726735
98	0xbd9edd35	-0.07757036
99	0xbd3b25db	-0.0456904
100	0xbda003fa	-0.078132585
101	0x3da72a2a	0.08162339
102	0xbc68630c	-0.014183771
103	0x3d595a82	0.05306483
104	0xbcbeb9dd	-0.023281986
105	0xbbd764e0	-0.0065733045
106	0xbd5410b7	-0.051773753
107	0xbd2d3af1	-0.04229254
108	0x3d8d30b9	0.06894059
109	0x3d9ebdef	0.07751071
110	0x3c07bca0	0.008284718
111	0x3d2950c3	0.041336786
112	0x3c521bf0	0.012824044
113	0x3d6486cf	0.055792626
114	0xbc7fbd79	-0.015609139
115	0x3a216c87	0.00061578344
116	0xbda251b9	-0.079257436
117	0x3c01ba2f	0.007917925
118	0xbcc3d5da	-0.023905683
119	0x3c1592cb	0.009129236
120	0xbd8ed96f	-0.06975066
121	0xbc577554	-0.013150532
122	0x3d06d850	0.032921135
123	0x3cb92be5	0.022603938
124	0x3d31b760	0.04338777
125	0x3d4ffcd9	0.050778244
126	0xbc843a5b	-0.016141107
127	0x3cda1a7d	0.026623959
128	0x3bb26a40	0.005444795
129	0xbd966c05	-0.07344822
130	0x3d877d41	0.06615687
131	0xbd83db07	-0.064382605
132	0x3cacc065	0.021087835
133	0x3ceb307b	0.02870964
134	0x3c4a499a	0.01234665
135	0x3c89087e	0.016727682
136	0xbbee6fd1	-0.007276513
137	0x3cb6a521	0.022295536
138	0xbca37aec	-0.019956075
139	0xbd95d52a	-0.073160484
140	0xbd6532d6	-0.055956684
141	0xbd6a4a0e	-0.05719953
142	0x3d7aa7ac	0.06119506
143	0x3cb188a7	0.021671606
144	0x3d337fe1	0.043823127
145	0xbd135810	-0.035972655
146	0x3d6cca48	0.057810098
147	0xbc898e80	-0.016791582
148	0xbd7a2a0e	-0.061075263
149	0xbd68e480	-0.05685854
150	0xbda453a0	-0.08023763
151	0x3cd85565	0.026407907
152	0x3d13bddc	0.036069736
153	0xbd5630a3	-0.052292477
154	0x3d742072	0.059601255
155	0xbb0ec81b	-0.0021786753
156	0xbd24463b	-0.04010604
157	0xbc0380cf	-0.008026316
158	0xbd5f892a	-0.05457417
159	0xbd4a82d2	-0.049441166
160	0x3d8cebb0	0.06880891
161	0xbc91c3e5	-0.017793605
162	0x3be5bf6f	0.007011346
163	0xbd5737d0	-0.05254346
164	0xbd9baa4a	-0.076008394
165	0xbd8f6972	-0.07002534
166	0x3d71835e	0.058963172
167	0xbd3757b2	-0.044761367
168	0xbd395fc1	-0.045257334
169	0x3d5b8f93	0.05360372
170	0xbcde7516	-0.02715544
171	0x3caf2157	0.021378202
172	0x3cba8d75	0.02277253
173	0xbc904473	-0.017610764
174	0xbd716904	-0.05893804
175	0xbd3f3d0b	-0.046689074
176	0x3cc3c29f	0.023896514
177	0xbd2d3f18	-0.0422965
178	0xbd01320b	-0.031541865
179	0x3cf76a1d	0.030201966
180	0x3d589117	0.052872743
181	0xbd031c13	-0.032009196
182	0x3d0bc626	0.034124516
183	0xbbd87d18	-0.006606709
184	0x3c61a1aa	0.013771454
185	0x3c304f28	0.01076106
186	0x3d001391	0.03126866
187	0xbd0964b7	-0.033543315
188	0xbd9ce29e	-0.07660411
189	0xbd97dc24	-0.07415035
190	0x3c9565a4	0.018236943
191	0xbcaa2ca0	-0.020773232
192	0x3d58464c	0.052801415
193	0xbd143296	-0.036181055
194	0xbd6bd750	-0.057578385
195	0xbd90384a	-0.07041986
196	0x3d0482cd	0.032351304
197	0x3d236baa	0.0398976
198	0xbcc0f87f	-0.023555992
199	0x3d829608	0.063762724
200	0xbcaa975d	-0.020824129
201	0xbceae243	-0.028672343
202	0xbcd20682	-0.025637869
203	0x3d6719fa	0.056421258
204	0xbc889ff6	-0.016677838
205	0xbd93a4bc	-0.07209155
206	0xbb4f95d8	-0.0031675007
207	0x3d9b896d	0.07594571
208	0xbd997fa6	-0.0749505
209	0xbda4d9de	-0.08049367
210	0x3d557086	0.052109264
211	0xbd4be5c0	-0.049779654
212	0xbd8a57d4	-0.06755033
213	0xbd1894fc	-0.037251458
214	0xbd1f6798	-0.038917154
215	0x3c79fa64	0.015257452
216	0xbd8113ee	-0.063026294
217	0x3c8b96a1	0.017039599
218	0x3d52bc5f	0.051449176
219	0xbc61b8ef	-0.013777002
220	0x3d23815f	0.0399183
221	0x3da3225f	0.0796554
222	0xbce8e222	-0.028428141
223	0xbd648725	-0.055792946
224	0xbd944b8d	-0.07240973
225	0x3d1d0691	0.03833634
226	0x3d9a7d86	0.07543473
227	0xbd3e9f44	-0.046538606
228	0x3d6bb107	0.057541873
229	0xbce9cf8d	-0.02854135
230	0xbcb561e0	-0.022141397
231	0x3bc8ff20	0.006133929
232	0x3d562751	0.05228359
233	0xbc200f6f	-0.009769305
234	0xbc663651	-0.014051036
235	0xbc8db42b	-0.017297825
236	0x3d6ef285	0.058336753
237	0xbd884e91	-0.0665561
238	0xbda5efbd	-0.08102367
239	0x3c928087	0.017883552
240	0xbda294f5	-0.079385675
241	0x3d88914b	0.066683374
242	0xbcf3f04b	-0.029777667
243	0x3d85a480	0.065255165
244	0xb9e96d1a	-0.0004452251
245	0xbda60931	-0.08107222
246	0x3d805f9c	0.06268236
247	0x3d907dd3	0.07055249
248	0x3d9df7b7	0.077132635
249	0xbd89cc09	-0.0672837
250	0x3d8e5264	0.069493085
251	0x3d0c76c1	0.03429294
252	0xbd1f8260	-0.038942695
253	0xbc31035c	-0.010804024
254	0xbccd8a3f	-0.025090335
255	0xbcde1555	-0.027109781

conv2.bias f4 [16]
0	0x3d8cc736	0.06873934
1	0xbd169af0	-0.036768854
2	0x3d11dad4	0.03560908
3	0xbb152267	-0.00227561
4	0x3c2c8b48	0.010531254
5	0x3c02ef45	0.007991617
6	0xbd5de994	-0.054177836
7	0xbd8f9c85	-0.070122756
8	0x3d49263d	0.049108732
9	0xbd63e1e8	-0.055635363
10	0x3ce54bcd	0.027990246
11	0x3d7dfd8e	0.062009387
12	0x3c03998c	0.008032214
13	0x3d8f9c04	0.070121795
14	0x3d468a7a	0.048471905
15	0xbc7d7f85	-0.015472298

fc1.weight f4 [120, 400]
0	0x3caadc13	0.020856893
1	0xbcafbedd	-0.021453315
2	0xbd2ba0f7	-0.041901555
3	0x3d363187	0.044480827
4	0xbd11a31d	-0.035555948
5	0x3d2de7a3	0.042457234
6	0x3a850b33	0.0010150432
7	0x3d22a353	0.03970654
8	0x3d142ef8	0.036177605
9	0xbcd9e54d	-0.026598597
10	0x3d3e6fa0	0.046493173
11	0xbd0d7993	-0.03453977
12	0x3c934663	0.017977899
13	0xbc815723	-0.01578862
14	0xbcae4fcd	-0.021278286
15	0x3d1c1b50	0.038111985
16	0x3cf29ef0	0.029616803
17	0xbc73285a	-0.0148411635
18	0xbc4b45da	-0.012406791
19	0x3d09b20b	0.03361706
20	0x3bf29473	0.0074029504
21	0xbcc56f1a	-0.024100829
22	0x3cc27910	0.023739368
23	0x3d1a1532	0.03761787
24	0xbcac1820	-0.021007597
25	0xbbee9fda	-0.0072822394
26	0x3c87bc9a	0.016569424
27	0x3d28021b	0.041017633
28	0x3cf85ab0	0.03031668
29	0xbced4c0a	-0.028966922
30	0xbc726b73	-0.014796126
31	0xbd105b4f	-0.03524333
32	0xbcc17e93	-0.023619926
33	0xbc5a1c6d	-0.013312441
34	0x3cd7e82a	0.026355822
35	0x3cf19c03	0.029493337
36	0x3c3c781a	0.011503244
37	0xbd0de743	-0.034644376
38	0x3d4010ba	0.04689095
39	0x3cffb33d	0.031213397
40	0x3d34ab6b	0.04410879
41	0x3b0e3d9a	0.0021704198
42	0x3b829200	0.0039846897
43	0x3cd06813	0.025440251
44	0xbcc327d3	-0.0238227
45	0x3c7c62c0	0.015404403
46	0x3d1de558	0.038548797
47	0x3bc986da	0.0061501088
48	0xbce2ca6d	-0.027684415
49	0xbcd18e37	-0.025580509
50	0xbd054417	-0.03253564
51	0xbd2136df	-0.03935897
52	0xbb2e7e80	-0.0026625693
53	0x3c86975d	0.016429598
54	0x3ca79de3	0.020461028
55	0xbd041260	-0.032244086
56	0xbb08da1a	-0.0020881952
57	0x3cd9438a	0.026521463
58	0x3d37c427	0.0448648
59	0x3a428b9a	0.0007421315
60	0x3cab64a7	0.020922018
61	0x3d107f72	0.03527779
62	0x3cec8237	0.028870685
63	0x3c9777dd	0.018489772
64	0xbd471d3f	-0.048611876
65	0x3ae6ba00	0.001760304
66	0x3ba648da	0.0050746026
67	0x3d0c960b	0.03432278
68	0x3d439567	0.047749903
69	0x3ce57fb7	0.028015
70	0xbcaeca80	-0.021336794
71	0xbc99fe37	-0.018797977
72	0xbd155fc8	-0.036468297
73	0xbcb1a74a	-0.021686215
74	0x3c7b69c7	0.0153450435
75	0x3d20477a	0.039130665
76	0xbc8ec310	-0.017426997
77	0x3ccdf00a	0.025138874
78	0x3c352c8d	0.011057985
79	0x3c772b00	0.015085936
80	0x3d32a5bf	0.0436151
81	0xbd4bc170	-0.049745023
82	0x3cf58ba0	0.029973805
83	0xbd1e83b8	-0.038699836
84	0x3cb24943	0.02176345
85	0xbd04abb2	-0.032390304
86	0x3d116f67	0.035506632
87	0xbd405f3f	-0.046965834
88	0xbce086d0	-0.027408034
89	0x3bcc0eb3	0.006227338
90	0xbc9e03d7	-0.01928894
91	0x3d027913	0.031853747
92	0x3c1429ed	0.009043199
93	0x3d387dc0	0.0450418
94	0xbd33b85d	-0.043876994
95	0xbceace6a	-0.028662879
96	0x3cd978d3	0.026546871
97	0x3c904f5d	0.017615968
98	0x3be20500	0.0068975687
99	0xbc82a04a	-0.015945572
100	0xbd2a9f83	-0.04165603
101	0xbc8af7f7	-0.016963942
102	0x3c91344d	0.017725134
103	0xbcb48253	-0.0220348
104	0xbaee0d00	-0.0018161833
105	0xbd2109a8	-0.03931585
106	0x3d0c3497	0.03422984
107	0xbcf92fb7	-0.03041826
108	0xbbf17840	-0.0073690712
109	0x3c9c4e2a	0.01908024
110	0x3cd9339d	0.026513869
111	0xbd3fd4e3	-0.046833884
112	0x3ca64acd	0.02029934
113	0x3cbcfe93	0.02307061
114	0xbd37c17a	-0.044862248
115	0x3cdcc6b7	0.026950223
116	0xbcb7b6e7	-0.022426082
117	0xbd271682	-0.04079295
118	0x3d3b1893	0.045677733
119	0x3bb862a7	0.0056269947
120	0x3ce2b583	0.027674442
121	0xbcb7632d	-0.022386158
122	0xbd1e8875	-0.038704354
123	0xbc94ebb7	-0.018178804
124	0x39bd18cd	0.00036067367
125	0x3cca0310	0.024659663
126	0x3d3013cb	0.042987626
127	0xbb7c6967	-0.0038514973
128	0xbcb8314d	-0.022484446
129	0x3c9e6940	0.019337296
130	0xbd3f7b33	-0.04674835
131	0xbc46b5ba	-0.012128288
132	0x3d18f435	0.03734227
133	0xbd0e205b	-0.034698825
134	0x3b22aee7	0.0024823488
135	0xbd144423	-0.036197793
136	0xbbef3b80	-0.007300794
137	0x3ced2c0d	0.02895167
138	0xbb0ff91a	-0.0021968544
139	0x3ccdd9ea	0.025128324
140	0xbb419d67	-0.0029543282
141	0xbcde9aad	-0.027173365
142	0xbc552b13	-0.013010758
143	0xbd25a975	-0.04044481
144	0x3d364550	0.044499695
145	0xbc81ef77	-0.015861256
146	0x3c0a8fe7	0.008457161
147	0x3d33d430	0.04390353
148	0xbc6ef8ad	-0.014585656
149	0x3c0c69f3	0.008570182
150	0x3b0fa133	0.002191615
151	0x3d056dfa	0.032575585
152	0xbc437627	-0.011930025
153	0x3bbd66da	0.005780083
154	0xbce216e3	-0.027598804
155	0xbbb1fc80	-0.0054317117
156	0xbd27a588	-0.040929347
157	0xbd47a652	-0.0487426
158	0xbd408d2b	-0.04700963
159	0xbd27b268	-0.040941626
160	0xbcad9bf3	-0.021192526
161	0xbcdb5e27	-0.026778294
162	0xbd499b18	-0.049220175
163	0xbd05b8a0	-0.032646775
164	0xbc3a5d0d	-0.011374724
165	0x3d0007a3	0.031257283
166	0x3d2926ab	0.041296642
167	0x3d1529ff	0.036417004
168	0xbc7f6d20	-0.015589982
169	0xbd2bd7cb	-0.041953843
170	0x3d4c864d	0.049932767
171	0xbc52b540	-0.012860596
172	0x3cfd0313	0.030885255
173	0xba697d33	-0.0008906901
174	0xbd0d927d	-0.03456353
175	0x3b87b94d	0.0041419626
176	0x3b87c700	0.0041435957
177	0x3cb487f7	0.02203749
178	0xbbf7c95a	-0.007561845
179	0xbcde4e17	-0.027136846
180	0xbcf05093	-0.029335296
181	0xbcadebfa	-0.021230686
182	0x3d21fc6a	0.03954736
183	0x3a005a00	0.00048962235
184	0x3d4584c3	0.048222315
185	0xbca5894a	-0.020207066
186	0xbcb35f27	-0.021895958
187	0xbc5479f3	-0.012968528
188	0xbd1a369f	-0.037649747
189	0xbc361887	-0.011114246
190	0xbc68de80	-0.014213204
191	0x3d4bf2ea	0.049792208
192	0xbca895ca	-0.020579237
193	0xbc7db993	-0.015486139
194	0xbd12a808	-0.03580478
195	0xbce527d0	-0.027973086
196	0xbcd3deba	-0.02586304
197	0x3d471a50	0.048609078
198	0xbc9daaa7	-0.019246412
199	0x3ba17473	0.004927212
200	0x3cdc4b6d	0.026891435
201	0x3d12d285	0.0358453
202	0xbc6c58ad	-0.014425439
203	0x3b6fbc33	0.0036580681
204	0xbcbb975d	-0.022899324
205	0xbd0d1e63	-0.034452807
206	0x3cb4a5ea	0.02205177
207	0x3946a19a	0.00018942953
208	0xbd1e5d7b	-0.03866337
209	0xbbaf4eda	-0.005349976
210	0x3d335217	0.04377946
211	0xbc9974ad	-0.018732393
212	0xbc85d5fa	-0.016337384
213	0x3d447c42	0.047970064
214	0xbd1c808d	-0.038208533
215	0xbd3e0b80	-0.046397686
216	0x3c08faad	0.008360547
217	0xbc42e407	-0.011895186
218	0x3cdb5227	0.026772572
219	0x3d06b43b	0.032886725
220	0x3d144948	0.0362027
221	0x3d4b470f	0.049628314
222	0xbcf9c010	-0.03048709
223	0x3d12bf82	0.035827167
224	0xbc08c44d	-0.008347583
225	0xbd08fc4d	-0.033443738
226	0xbd295f85	-0.04135086
227	0x3b6af91a	0.0035854043
228	0xbd0c14f5	-0.034199674
229	0x3ca9f16a	0.020744998
230	0x3bb129a7	0.0054065767
231	0x3d09abdb	0.03361116
232	0x3d1dedfb	0.038557034
233	0x3d24b910	0.04021555
234	0x3d2904f5	0.041264493
235	0x3ce2b6b3	0.027675008
236	0x3bcbb7b3	0.006216967
237	0xbd0420aa	-0.032257713
238	0x3b7a5b1a	0.0038201273
239	0xbd267a6a	-0.040644087
240	0xbcf873a7	-0.030328585
241	0x3c5ee907	0.013605363
242	0xbd411db5	-0.04714747
243	0xbd2ca7e3	-0.042152297
244	0x3b2d3700	0.0026430488
245	0x3d2563a3	0.040378224
246	0xbd397e40	-0.045286417
247	0x3c78dbda	0.015189135
248	0x3cc7899d	0.024357611
249	0x3d3bc0a0	0.045838
250	0xbc8504ea	-0.016237695
251	0x3d347392	0.04405553
252	0xbc68c527	-0.014207161
253	0x3d3d01f3	0.046144437
254	0x3d078570	0.03308624
255	0x3ce4769a	0.027888585

fc1.bias f4 [120]
0	0x3cd42d2a	0.025900442
1	0x3d469332	0.04848022
2	0x3cefe3ea	0.029283483
3	0x3cf29c1d	0.029615456
4	0xbcdbf613	-0.026850736
5	0x3d35a132	0.04434318
6	0x3c09913a	0.008396441
7	0x3c10aa00	0.008829594
8	0xbd491ef0	-0.04910177
9	0xbc37c4e7	-0.011216379
10	0xbd08824a	-0.03332738
11	0x3d373718	0.044730276
12	0xbcdd03a3	-0.026979273
13	0x3ca365a0	0.01994592
14	0x3c4e2c27	0.012583769
15	0xbca093f7	-0.019601805
16	0x3d031baf	0.032008823
17	0x3b96baa7	0.0045998874
18	0xbc18d29a	-0.009327555
19	0x3c5f15c7	0.013616032
20	0xbd3ea65f	-0.046545383
21	0x3c1cce1a	0.009570623
22	0xbc6ab67a	-0.014325732
23	0xbd01072d	-0.031500984
24	0x3cafc50d	0.021456266
25	0x3c67967a	0.0141349975
26	0x3b716e4d	0.0036839426
27	0xbcf85c7a	-0.030317534
28	0xbd409a72	-0.04702229
29	0xba8f4e00	-0.001093328
30	0xbaa88c67	-0.0012859226
31	0x3d40c873	0.047066163
32	0xbcfee560	-0.031115234
33	0x3d4950c7	0.0491493
34	0x39d22267	0.00040079953
35	0x3c8f1df7	0.017470343
36	0x3b4bc2e7	0.0031091513
37	0xbcb21c2d	-0.02174195
38	0x3b003d00	0.0019567609
39	0x3cd4edda	0.025992323
40	0x3c5a8220	0.013336688
41	0xbbb1ca9a	-0.0054257633
42	0xbc0b756d	-0.008511883
43	0xbc8aa923	-0.016926354
44	0xbcfc1103	-0.03076983
45	0xbb21f9e7	-0.0024715604
46	0x3ccc2bc0	0.024923205
47	0xbba272a7	-0.0049575153
48	0xbd2735df	-0.04082286
49	0x3c8eb6a0	0.017421067
50	0x3c2b8800	0.010469437
51	0x3d160d93	0.03663404
52	0xbd1a2b8d	-0.03763919
53	0xbd08cffa	-0.033401467
54	0xbd1ad8e7	-0.03780451
55	0x3aedaf00	0.0018133819
56	0x3c14956d	0.009068829
57	0x3b0d6733	0.0021576404
58	0xbd1af3cb	-0.037830155
59	0x3a3a519a	0.00071074965
60	0xbd3402a7	-0.043947842
61	0x3c589233	0.01321845
62	0xbd014e1b	-0.031568628
63	0xbd040cdd	-0.03223883
64	0x3bcbbf33	0.006217861
65	0x3d0efe4b	0.03491048
66	0x3d193775	0.037406404
67	0x3d0a88e5	0.03382196
68	0x3c954be3	0.018224662
69	0xbd4be562	-0.049779303
70	0x3cb4af50	0.022056252
71	0x3bfb6fda	0.007673246
72	0xbce1e96d	-0.027577126
73	0xbbe53b67	-0.0069956067
74	0x3a60aecd	0.0008570969
75	0x3ca4deaa	0.020125706
76	0xbcb68dca	-0.022284407
77	0x3cdfd0aa	0.027321178
78	0x3ce3597a	0.027752627
79	0xbd228c33	-0.039684486
80	0x3c35638d	0.011071098
81	0xbcedbce3	-0.029020732
82	0xbd29b2bf	-0.04143023
83	0xbc18b693	-0.009320873
84	0xbcfb9b7a	-0.030713785
85	0xbca0299a	-0.019551087
86	0x3d414c48	0.047191888
87	0x3d4b031a	0.049563505
88	0x3d060528	0.03271976
89	0xbc23eab3	-0.010004687
90	0xbc5d1f87	-0.013496286
91	0xbb1b9400	-0.0023739338
92	0x3c8259ca	0.015911955
93	0xbc9606a3	-0.018313712
94	0x3d3c7467	0.046009447
95	0x3b91b7da	0.0044469656
96	0xbc6c0133	-0.014404583
97	0x3d2e8840	0.042610407
98	0x3d29c687	0.041449096
99	0x3b5e98e7	0.0033965649
100	0xbc95a237	-0.018265827
101	0x3c838f90	0.016059667
102	0xbc02f8a0	-0.007993847
103	0x3bbd9067	0.0057850364
104	0x3ac47ccd	0.0014990807
105	0x3ce6395d	0.028103525
106	0x3d06e640	0.032934427
107	0xbd4a290d	-0.049355555
108	0x3d3afb63	0.045649897
109	0xbcc29540	-0.023752809
110	0xbd1d67c2	-0.03842903
111	0x3d144525	0.036198754
112	0xbce29273	-0.027657723
113	0xbd0a6702	-0.033789642
114	0xbd1b27a2	-0.037879594
115	0xbc8c6ef7	-0.017142756
116	0xb6cc999a	-6.0975553e-06
117	0xbd3c1582	-0.04591895
118	0x3d21357f	0.03935766
119	0x3c951f8d	0.018203521

fc2.weight f4 [84, 120]
0	0x3d55b60b	0.052175563
1	0x3a39f5da	0.00070938247
2	0x3d6d7fa8	0.05798307
3	0xbd8826b6	-0.066480085
4	0xbb0d0898	-0.0021520015
5	0xbd41e6e5	-0.04733934
6	0x3d1d5cb5	0.03841849
7	0x3d00a58b	0.031407874
8	0x3d7bb02d	0.06144731
9	0x3d6dff12	0.058104582
10	0x3d3fe031	0.046844665
11	0x3d53531b	0.051592927
12	0x3d19fec7	0.03759649
13	0x3cab21b4	0.020890094
14	0x3c92fe5d	0.017943555
15	0xbd5fae4b	-0.054609578
16	0xbd6268fb	-0.0552759
17	0xbd713f90	-0.05889851
18	0xbccedfd1	-0.025253208
19	0x3d7499ea	0.059717096
20	0xbcfeef67	-0.031120015
21	0xbd56cbe3	-0.052440535
22	0x3b637c3c	0.00347115
23	0xbd3b66b6	-0.04575225
24	0x3a8db179	0.0010810337
25	0xbaa5d657	-0.0012652379
26	0x3d9689be	0.07350491
27	0x3c41e2d8	0.011833869
28	0xbd729ab1	-0.059229556
29	0x3ae3ff81	0.0017394872
30	0xbd4c1dff	-0.049833294
31	0xbd8c0563	-0.06836965
32	0xbda13022	-0.07870509
33	0x3daac8f6	0.083391115
34	0xbd001eff	-0.03127956
35	0x3d3af67c	0.045645222
36	0x3ca2e2bc	0.019883506
37	0xbce9f4a9	-0.028559046
38	0xbda7ab37	-0.081869535
39	0xbba8ba39	-0.0051491526
40	0xbd87847c	-0.06617066
41	0x3cc54aef	0.024083583
42	0x3d035f5a	0.032073356
43	0x3d8568a7	0.065141015
44	0xbdba3d13	-0.0909368
45	0xbc90ecc3	-0.017691022
46	0xbccc3948	-0.024929658
47	0x3da4f190	0.08053887
48	0x3d55eb1d	0.052226175
49	0xbd9a149e	-0.07523464
50	0x3c92da5a	0.017926384
51	0xbd540ff4	-0.051773027
52	0xbd32a70d	-0.043616343
53	0xbd5bb916	-0.05364331
54	0x3bb539be	0.005530565
55	0xbd80ac86	-0.06282906
56	0xbd388028	-0.045044094
57	0xbc0f91b0	-0.008762762
58	0xbd893710	-0.066999555
59	0xbd6e40f2	-0.058167405
60	0x3c627dd1	0.013823942
61	0x3ceba0d2	0.028763209
62	0x3d9fe2ae	0.078069076
63	0x3d27e8c1	0.040993456
64	0x3db99ce9	0.09063131
65	0xbd80769c	-0.06272623
66	0x3da6059d	0.081065394
67	0x3d9c0ef9	0.07620043
68	0x3b65b17c	0.0035048416
69	0xbd768c4b	-0.060192388
70	0x3d6cdb6b	0.05782644
71	0xbdabf3f0	-0.08396137
72	0xbda7c05d	-0.08190987
73	0x3cbc2066	0.022964668
74	0xbb352231	-0.0027638788
75	0xbd16c325	-0.036807198
76	0xbc976e00	-0.01848507
77	0x3d2dbf68	0.042418867
78	0xbc2ffa80	-0.010740876
79	0x3d3b04f1	0.04565901
80	0xbdaf53ac	-0.08560881
81	0x3b6ae0cc	0.0035839556
82	0x3cc6c6d9	0.02426474
83	0xbd6b6d21	-0.05747712
84	0x3d9ef1c7	0.07760959
85	0xbd8712a5	-0.06595353
86	0x3d5b1bb5	0.05349322
87	0xbc82f523	-0.01598603
88	0xbb9e14c1	-0.0048242514
89	0xbd9e43e2	-0.07727791
90	0xbda7ccef	-0.08193385
91	0x3d4d4480	0.050114155
92	0x3d6383db	0.05554567
93	0x3d023971	0.03179306
94	0x3c7096fd	0.014684436
95	0xbd3f0693	-0.04663713
96	0xbd4caac3	-0.04996754
97	0xbd5d094c	-0.053963944
98	0xbd0a8559	-0.033818576
99	0x3ca5696f	0.020191876
100	0xbd9a640e	-0.07538615
101	0x3d3cf222	0.046129353
102	0x3d7feea4	0.062483445
103	0xbc98f316	-0.0186706
104	0xbd49dbac	-0.04928176
105	0xbb9a35be	-0.0047061136
106	0xbc29c76d	-0.010362488
107	0x3db202c6	0.08691935
108	0x3d3f3109	0.046677623
109	0xbd396a8f	-0.045267638
110	0x3b84d2fb	0.004053471
111	0x3d68a93c	0.05680202
112	0xbcc18cbd	-0.02362668
113	0xbd28f1dc	-0.04124628
114	0x3daf6b9e	0.08565448
115	0xbcd18d3f	-0.025580047
116	0x3ce1546d	0.027506078
117	0x3d3c04da	0.045903064
118	0xbca3995b	-0.019970587
119	0xbcfcbf0f	-0.030852823
120	0x3dae89f6	0.08522408
121	0x3d9861f2	0.074405566
122	0xbc719516	-0.0147450175
123	0x3d2a0da3	0.04151691
124	0x3d601aaf	0.054712947
125	0x3cf3c08c	0.0297549
126	0xbd870627	-0.0659297
127	0xba765179	-0.00093962956
128	0x3ce8a029	0.028396683
129	0xbcc1906a	-0.023628432
130	0x3c74b818	0.0149364695
131	0x3c8199d6	0.015820425
132	0x3d189969	0.03725568
133	0xbcb9e791	-0.022693427
134	0xbd8d003f	-0.068848126
135	0xbd6d8fd0	-0.05799848
136	0xbcf17e61	-0.029479207
137	0x3d1c67ec	0.038185045
138	0xbd9efe72	-0.07763375
139	0xbd931b5b	-0.07182952
140	0xbcad0422	-0.021120135
141	0x3d8395ce	0.06425057
142	0xbcb7d3c0	-0.022439837
143	0xbda35eac	-0.079770416
144	0x3db19172	0.086703196
145	0x3d4eee00	0.050519943
146	0xbc005be2	-0.007834407
147	0x3da9876c	0.08277783
148	0xbb088b1b	-0.0020834866
149	0x3d4aa60e	0.04947477
150	0xbda2db22	-0.079519525
151	0x3c729a94	0.014807362
152	0xbd8a44fe	-0.067514405
153	0xbd1ab118	-0.037766546
154	0x3d11f426	0.03563323
155	0xbda57f13	-0.08080878
156	0xbd8f655c	-0.07001755
157	0xbc67e7d4	-0.014154393
158	0xbc1d12f6	-0.00958704
159	0x3d11f6b4	0.035635665
160	0xbc88a014	-0.016677894
161	0x3d84df38	0.06487888
162	0xbd5a2de7	-0.053266432
163	0x3d9b4144	0.07580808
164	0xbd978257	-0.07397907
165	0xbd8f644d	-0.07001553
166	0x3c4472ed	0.011990291
167	0xbd1cdf6e	-0.038299017
168	0xbd7cda29	-0.06173149
169	0x3d8b0f0a	0.06789978
170	0x3da84996	0.082171604
171	0xbccbd9fa	-0.024884213
172	0x3d7be121	0.061493997
173	0x3d257aaa	0.040400185
174	0xbdb7ee03	-0.08980944
175	0xbdaf0b2b	-0.08547052
176	0x3d085a44	0.03328921
177	0x3d90abaa	0.07063992
178	0x3d34887a	0.044075467
179	0x3cf62235	0.030045608
180	0x3ccfb47f	0.025354622
181	0xbda3798d	-0.07982168
182	0x3d9bcb1d	0.076071
183	0xbd4d05e1	-0.050054435
184	0xbd07209b	-0.03299008
185	0x3c94cf8a	0.018165369
186	0xbb7565c5	-0.0037444693
187	0xbcc99434	-0.024606802
188	0x3c4f8c1a	0.01266768
189	0xbd9cb487	-0.0765162
190	0xbdacfd3d	-0.08446739
191	0x3d6af008	0.057357818
192	0x3d8c8121	0.06860567
193	0xbd8317bb	-0.064010106
194	0xbcd50e82	-0.026007894
195	0xbd228ecf	-0.039686974
196	0x3c87fa36	0.016598802
197	0x3c1b74d6	0.009488305
198	0xbda637a4	-0.08116081
199	0xbcb44f11	-0.022010358
200	0x3d9a6ef0	0.07540691
201	0xbda2ec07	-0.07955175
202	0x3daa9516	0.08329217
203	0x3b804bba	0.0039152773
204	0xbd90bd83	-0.070673965
205	0x3cb9e185	0.022690544
206	0xbdb73bcc	-0.08946952
207	0x3db1cd36	0.08681719
208	0x3d2a09b4	0.04151316
209	0x3d9a1427	0.07523375
210	0x3da51530	0.08060682
211	0x3d9176a7	0.07102709
212	0x3d82af90	0.06381142
213	0x3bd4d069	0.006494571
214	0x3d981b03	0.07427027
215	0xbd2a2b7d	-0.04154538
216	0x3d19a556	0.037511192
217	0xbc3d80bf	-0.01156634
218	0xbda684cc	-0.08130798
219	0xbb55f6fe	-0.003264844
220	0x3cacd946	0.021099698
221	0xbd337b4e	-0.043818764
222	0xbb30be15	-0.0026968766
223	0xbc90b453	-0.01766411
224	0xbd0fd3d1	-0.035114113
225	0x3d8482a2	0.06470229
226	0x3cd84683	0.02640081
227	0x3d856416	0.065132305
228	0xbce2e265	-0.027695844
229	0x3c463d5f	0.012099593
230	0xbd5cdef6	-0.05392357
231	0xbd2aed4b	-0.041730206
232	0xbd310728	-0.043219715
233	0x3c74fc6c	0.01495276
234	0x3da6c97f	0.08143901
235	0x3c5b63f9	0.013390535
236	0xbc2bd301	-0.010487319
237	0xbd66b11f	-0.05632126
238	0xbdba0575	-0.09083072
239	0x3c33a9d0	0.010965779
240	0x3d01d0df	0.031693336
241	0xbb92918d	-0.0044729174
242	0x3d97f42f	0.07419621
243	0xbd54e25c	-0.051973686
244	0xbd42b809	-0.04753879
245	0xbd962882	-0.07331945
246	0xbcd6890e	-0.0261884
247	0x3b6bb409	0.0035965464
248	0x3d80fc98	0.062981784
249	0x3d870b8c	0.06593999
250	0x3d23339a	0.039844133
251	0x3a5492cb	0.0008109032
252	0xbd8ade95	-0.067807354
253	0xbdb4662f	-0.088085525
254	0xbd9b668e	-0.0758792
255	0xbc7e093e	-0.015505133

fc2.bias f4 [84]
0	0xbd71da14	-0.059045866
1	0xbd29e78f	-0.041480597
2	0xbd68bb14	-0.056819037
3	0x3d1f8ce4	0.038952723
4	0x3da4ed3e	0.08053063
5	0xbd9f34ae	-0.0777372
6	0x3d2bfbd8	0.041988224
7	0x3d0a39de	0.033746593
8	0xbcab6255	-0.020920912
9	0xbd934b3f	-0.071920864
10	0xbd747f53	-0.05969174
11	0x3d63d9f4	0.05562778
12	0xbd844fd0	-0.064605355
13	0x3cb8f57f	0.022578
14	0x3d11a52f	0.035557922
15	0x3cfd307b	0.030906906
16	0xbd80fdd1	-0.06298412
17	0xbd89ae38	-0.06722683
18	0x3dade689	0.08491237
19	0x3c4e6122	0.0125964
20	0xbd4c9e96	-0.049955927
21	0xbd41a494	-0.047276095
22	0xbd1b37b2	-0.037894912
23	0xbd15df5f	-0.036589976
24	0x3d96353d	0.07334373
25	0x3db22524	0.0869849
26	0xbdb6d1f9	-0.08926768
27	0x3cb03301	0.021508696
28	0x3d9d46af	0.076794975
29	0xbd298726	-0.041388653
30	0xbd98d403	-0.07462313
31	0xbd191376	-0.037372075
32	0x3d08baa2	0.033381112
33	0xbc33dd4d	-0.010978055
34	0xbcafc0c8	-0.02145423
35	0x3dae34b7	0.08506148
36	0x3d0784c8	0.033085614
37	0x3da892c5	0.08231119
38	0x3db8cdfb	0.09023663
39	0xbd1dfb81	-0.03856993
40	0xbb40d581	-0.0029424133
41	0x3d9f7170	0.07785308
42	0xbd8776a9	-0.066144295
43	0x3cc7bea6	0.0243829
44	0x3d07d82c	0.033165142
45	0xbca4f6c7	-0.020137204
46	0xbd6fe4b5	-0.05856772
47	0xbd0c796e	-0.034295492
48	0x3cc826b1	0.024432512
49	0xbda3d715	-0.08000008
50	0x3d968fa8	0.07351619
51	0xbd711517	-0.058858003
52	0xbccc5ddd	-0.024947101
53	0xbda19534	-0.07889786
54	0xbd357c85	-0.044308204
55	0x3dac5031	0.08413733
56	0x3d300e63	0.04298247
57	0x3d43503f	0.04768395
58	0xbda66335	-0.08124391
59	0x3d3d2fa6	0.04618802
60	0x3d4166e7	0.047217276
61	0xbd941e2d	-0.07232318
62	0x3c5902c5	0.013245289
63	0xbda6d41a	-0.08145924
64	0xbd5de200	-0.05417061
65	0x3d83587a	0.0641336
66	0xbd8289c6	-0.063739344
67	0xbcb1ae94	-0.02168969
68	0xbd4a05f3	-0.04932208
69	0xbd39e1e5	-0.045381445
70	0x3cac1bc8	0.02100934
71	0xbd8eaf61	-0.069670446
72	0xbd307672	-0.04308171
73	0xbdb597c3	-0.08866837
74	0x3da8ec13	0.082481526
75	0x3cb4b038	0.022056684
76	0x3d0f7769	0.035025988
77	0x3c242933	0.010019588
78	0xbd4432e6	-0.047900103
79	0x3d3ffba8	0.046870857
80	0xbd3ebf85	-0.046569366
81	0xbd82679b	-0.063674174
82	0xbd9fae17	-0.07796877
83	0x3c6b4d86	0.014361745

fc3.weight f4 [10, 84]
0	0x3dc1693b	0.09443899
1	0x3b8116b3	0.0039394735
2	0x3d8d8523	0.069101594
3	0xbdca8f02	-0.09890558
4	0xbdaeff33	-0.08544769
5	0xbcf8c485	-0.030367145
6	0x3c2297dd	0.009923902
7	0x3ca0288d	0.019550586
8	0x3c00714a	0.00783951
9	0x3d2886ac	0.041144058
10	0x3da7dc3b	0.081963025
11	0xbd454cb7	-0.048168864
12	0x3daef578	0.08542913
13	0xbd0b2e35	-0.033979613
14	0xbc72333b	-0.014782722
15	0x3d9a8553	0.07544961
16	0xbdad35c1	-0.08457518
17	0x3d2ac5fe	0.041692726
18	0x3d157b20	0.036494374
19	0x3cf486d5	0.02984945
20	0xbd18a1c8	-0.03726366
21	0x3d4800fc	0.048829064
22	0x3ca61b93	0.02027682
23	0xbd6adf1b	-0.057341676
24	0xbc893ebf	-0.016753552
25	0xbd5883e4	-0.052860156
26	0xbd1be6ec	-0.03806202
27	0xbc582ef3	-0.013194787
28	0x3d89c293	0.06726565
29	0x3cc1618a	0.02360608
30	0xbd29e78c	-0.041480586
31	0xbc6dd365	-0.014515732
32	0x3cc8f7d1	0.02453223
33	0xbd601c59	-0.054714534
34	0x3db1b49b	0.08677026
35	0xbd63c393	-0.055606436
36	0xbcfbba10	-0.03072837
37	0xbbdc14ce	-0.0067163473
38	0xbd9cac36	-0.07650034
39	0x3b68bfbe	0.0035514678
40	0xbdce9de6	-0.100887105
41	0x3dbc228a	0.09186275
42	0x3da6b563	0.081400655
43	0x3cea0e6f	0.028571336
44	0xbd833d6d	-0.064082004
45	0xbdbf3788	-0.093367636
46	0xbd9c6b94	-0.076377064
47	0x3d94bb98	0.07262343
48	0xbc994f4e	-0.018714573
49	0x3c9b655e	0.018969234
50	0x3dbc2d4e	0.09188329
51	0xbd50f639	-0.051016066
52	0x3db02957	0.08601635
53	0xbd46fbc0	-0.04857993
54	0xbd88db78	-0.06682485
55	0x3dc1d1ee	0.09463869
56	0x3bfecb9f	0.0077757384
57	0xbcbed052	-0.023292694
58	0x3cdcee6c	0.026969157
59	0x3cc9bc21	0.02462584
60	0xbb1b1621	-0.0023664313
61	0xbc778c0f	-0.015109076
62	0x3d71fdac	0.05907981
63	0xbd641356	-0.055682503
64	0xbd8606dd	-0.06544278
65	0xbd8718cf	-0.06596529
66	0xbd7c91ad	-0.061662365
67	0xbd415fcf	-0.04721051
68	0xbd55e833	-0.052223396
69	0xbdd62ef5	-0.10458175
70	0x3d82bf0d	0.06384096
71	0xbdd56a64	-0.10420683
72	0x3d2712e6	0.040789507
73	0xbb03e205	-0.0020123732
74	0x3d002731	0.031287376
75	0xbd2c57d0	-0.042075932
76	0xbd3b32f1	-0.04570288
77	0x3dcac049	0.09899957
78	0xbd5872e2	-0.052843936
79	0x3d86cce9	0.06582052
80	0xbda1e61e	-0.079052195
81	0xbd2f3d7b	-0.04278324
82	0xbc9211e6	-0.0178308
83	0x3da66b21	0.08125902
84	0x3d66a0ae	0.05630558
85	0xbd64f268	-0.05589524
86	0x3dd037fd	0.10166929
87	0xbd8605ad	-0.06544051
88	0xbddbecf2	-0.10738553
89	0x3d1e4111	0.03863627
90	0xbdb1800f	-0.08667003
91	0x3d3873b5	0.04503222
92	0x3dc30d56	0.09524028
93	0x3cf37c2b	0.029722294
94	0xbcc74e6d	-0.024329389
95	0xbd96b96e	-0.07359587
96	0xbdc02749	-0.09382493
97	0x3d0c5e22	0.03426946
98	0x3da60aea	0.081075504
99	0x3dbee754	0.09321466
100	0xbd01de4a	-0.031706132
101	0xbd9b854d	-0.075937845
102	0x3d814f13	0.0631391
103	0x3dd2beb6	0.102902815
104	0xbd498e9e	-0.049208276
105	0xbd8a6563	-0.06757619
106	0x3d555c67	0.052090075
107	0xbdb03918	-0.0860464
108	0xbdc1dc2c	-0.094658226
109	0xbd5b47a4	-0.05353512
110	0x3b252d9c	0.0025204187
111	0x3da148df	0.07875227
112	0xbd6b7773	-0.057486963
113	0x3db36e00	0.08761215
114	0x3cfff5f3	0.031245207
115	0xbd37672d	-0.04477613
116	0xbbd93c9d	-0.00662954
117	0x3d145e92	0.036223
118	0xbdc97639	-0.09837002
119	0xbdd7a96f	-0.10530364
120	0xbd031bb3	-0.032008838
121	0x3dcd1f13	0.100156926
122	0x3d3166a3	0.043310773
123	0x3d5144a1	0.05109084
124	0x3d92a14e	0.07159673
125	0x3d518af3	0.051157903
126	0x3d7fee5b	0.062483173
127	0x3d3b65fe	0.045751564
128	0xbda99e9f	-0.08282208
129	0x3d5103e0	0.051029086
130	0xbdb3ae5e	-0.08773492
131	0xbd49d085	-0.049271125
132	0xbdb553a2	-0.08853842
133	0xbcaa4e92	-0.020789418
134	0xbd97d946	-0.074144885
135	0x3d203f77	0.039123025
136	0x3d474128	0.048646122
137	0x3cf0e160	0.029404342
138	0xbdbe630b	-0.09296235
139	0x3d9a0de5	0.075221814
140	0x3ca878e2	0.020565454
141	0xbd1b8a38	-0.037973613
142	0xbae07751	-0.0017125403
143	0xbdd839d4	-0.10557905
144	0xbd829b14	-0.06377235
145	0x3d93c3bf	0.0721507
146	0xbc97f8a6	-0.018551182
147	0xbdad5f7b	-0.08465477
148	0xbda4cd85	-0.08047012
149	0x3d813ab3	0.06310024
150	0x3c99b150	0.018761307
151	0xbc931841	-0.017955901
152	0x3d0283ee	0.0318641
153	0xbdaa481b	-0.08314534
154	0x3d9e23ea	0.07721694
155	0xbca073a5	-0.019586394
156	0x3d0b3a39	0.033991072
157	0x3d217666	0.039419554
158	0xbbebb52d	-0.0071932287
159	0xbd8b0a84	-0.06789115
160	0x3d30e2dc	0.0431851
161	0xbc5d16af	-0.013494178
162	0x3dc684d4	0.09693304
163	0xbcf3ad30	-0.029745668
164	0x3d050553	0.03247578
165	0x3d2056f7	0.039145436
166	0xbcfb10c1	-0.030647637
167	0xbddcb4ba	-0.10776658
168	0x3c2c5491	0.010518209
169	0xbc336260	-0.010948747
170	0xbd6bdaa1	-0.057581548
171	0xbc93121e	-0.017952975
172	0x3da7e385	0.08197693
173	0xbdd338a3	-0.10313537
174	0x3dc541b7	0.09631675
175	0x3d2776d4	0.040884808
176	0x3ca7df26	0.020492148
177	0xbce40fae	-0.027839508
178	0xbc621f35	-0.013801386
179	0xbd069af4	-0.03286262
180	0x3c5b5b44	0.013388459
181	0x3d1e56ce	0.038657002
182	0xbd231a82	-0.0398202
183	0xbdca3b10	-0.098745465
184	0x3d3bc375	0.0458407
185	0xbd83adfb	-0.064296685
186	0xbd82cdbc	-0.06386897
187	0x3db03821	0.08604456
188	0xbdad249c	-0.08454248
189	0xbcc171e8	-0.023613885
190	0xbdbb4946	-0.09144835
191	0x3d8ff3b2	0.07028903
192	0x3da24a5b	0.079243384
193	0xbaa6064d	-0.0012666673
194	0x3ccefd08	0.02526714
195	0xbd3c5e45	-0.04598834
196	0xbdad5ec6	-0.08465342
197	0xbd2ccba5	-0.042186398
198	0xbd13c9c6	-0.036081098
199	0x3c521e7e	0.012824653
200	0xbdccf1e4	-0.100070745
201	0x3b462db2	0.003023964
202	0xbd71ab99	-0.05900154
203	0xbc877b7f	-0.01653838
204	0xbdc7f3cf	-0.097633
205	0xbdd9d10c	-0.10635576
206	0xbba16173	-0.004924947
207	0xbd037d56	-0.03210195
208	0xbd612555	-0.054967243
209	0xbd98e89f	-0.07466244
210	0x3c95def6	0.018294793
211	0x3d233b80	0.039851665
212	0xbda2665e	-0.07929681
213	0xbd8d0c2e	-0.06887089
214	0xbcf18d24	-0.029486246
215	0xbd06f1b5	-0.032945354
216	0x3b982b63	0.004643844
217	0x3d968844	0.07350209
218	0xbccb69e9	-0.024830775
219	0x3c94c1ea	0.018158872
220	0x3dacf106	0.08444409
221	0xbdd9704d	-0.10617123
222	0x3d666a7e	0.056253903
223	0x3d477442	0.048694856
224	0x3db13660	0.08652949
225	0x3dccb48f	0.09995376
226	0x3d392757	0.045203533
227	0x3ca67e3d	0.020323867
228	0xbb99a944	-0.0046893675
229	0x3dbf039c	0.0932686
230	0x3dbf533d	0.09342048
231	0x3bce3eb1	0.0062940945
232	0xbd7bde35	-0.06149121
233	0xbd8f4bad	-0.06996856
234	0x3daa5b20	0.08318162
235	0xbb813cc7	-0.003944013
236	0x3cbd5ecc	0.023116492
237	0x3dc79852	0.0974585
238	0xbd030fc7	-0.03199747
239	0xbd646d6b	-0.05576841
240	0x3c9f6ed2	0.019462023
241	0x3d65881e	0.056038015
242	0x3afb0b5a	0.0019153163
243	0x3d1f66b5	0.03891631
244	0x3d89a1b8	0.067202985
245	0x3c4de927	0.012567795
246	0xbdcbbbf7	-0.09947961
247	0xbcb24ee7	-0.02176614
248	0xbdceb541	-0.10093165
249	0xbdcd5c18	-0.10027331
250	0xbcd439ca	-0.025906462
251	0x3db3fe55	0.08788744
252	0xbdd0948c	-0.10184583
253	0x3dd990cc	0.10623321
254	0xbd8dbc95	-0.06920735
255	0x3cf9186d	0.030407155

fc3.bias f4 [10]
0	0x3d99d0c2	0.075105205
1	0xbdbd1973	-0.0923337
2	0x3d10dd11	0.035367075
3	0xbccaddec	-0.024764024
4	0x3cb98173	0.022644734
5	0x3b45e18a	0.0030194246
6	0x3d6f293b	0.05838893
7	0xbd4ed38f	-0.050494727
8	0x3ca95cc2	0.020674113
9	0xbd279837	-0.040916648
