outputs/2025-03-19/08-54-45/model_state_acc_0.1_round_1.pth (torch, 251920 bytes, 10 tensors)

conv1.weight f4 [6, 3, 5, 5]
0	0x3d06e96c	0.032937452
1	0xbdfc8151	-0.12329353
2	0x3ced22ec	0.028947316
3	0xbc952698	-0.01820688
4	0xbd980522	-0.07422854
5	0xbdf40af7	-0.11916154
6	0x3d54b47e	0.051929943
7	0xbbcbdb50	-0.0062212124
8	0xbdf9298e	-0.12166129
9	0xbcfbfb0c	-0.030759357
10	0x3db47e61	0.08813167
11	0x3d2381b0	0.0399186
12	0xbd1f1fea	-0.038848795
13	0x3b902370	0.0043987557
14	0x3d100b78	0.035167187
15	0x3dd1162c	0.10209307
16	0x3db768c1	0.08955527
17	0x3dfde89e	0.12397884
18	0xbc483928	-0.012220658
19	0xbe08d178	-0.13361156
20	0x3dfea0f2	0.12433042
21	0x3ddc94ae	0.10770546
22	0x3a091800	0.00052297115
23	0x3d0c64be	0.034275763
24	0x3de33017	0.11093157
25	0x3e0eee62	0.13958123
26	0x3db7dcdd	0.08977673
27	0xbcbf4caa	-0.023351986
28	0xbd975840	-0.07389879
29	0xbe056505	-0.13026817
30	0x3dba576f	0.09098708
31	0xbc95f784	-0.018306501
32	0x3df6d100	0.12051582
33	0x3d3e9aa2	0.046534188
34	0xbcf0342e	-0.029321756
35	0x3dedc7e0	0.11610389
36	0x3b0a29c0	0.0021082014
37	0xbd1244ec	-0.03571026
38	0x3dac2d4c	0.08407077
39	0x3e3cc882	0.18435863
40	0x3dd55562	0.10416676
41	0x3dc51308	0.096227705
42	0xbbaba190	-0.0052377656
43	0x3dc76049	0.09735162
44	0xbe08f566	-0.13374862
45	0xbcd3c734	-0.025851823
46	0x3c9a18ac	0.018810593
47	0x3d8e785f	0.06956553
48	0x3d3f995a	0.046777107
49	0x3e37e7a2	0.17959455
50	0xbe10af38	-0.1412934
51	0xbd77c8bd	-0.060494173
52	0xbdab4f23	-0.083647035
53	0x3bb31a70	0.005465798
54	0xbe0ecce8	-0.13945353
55	0xbe2994f8	-0.16560733
56	0x3c8f0b6c	0.017461501
57	0xbdf3a4c2	-0.118966594
58	0xbe2008ee	-0.15628406
59	0xbdccba87	-0.09996515
60	0x3e0f497e	0.13992879
61	0x3d97ee7d	0.07418535
62	0x3e421499	0.1895317
63	0x3cb92408	0.022600189
64	0xbd7f8771	-0.062385026
65	0x3e249f4e	0.16076395
66	0x3e2d4f72	0.16924837
67	0xbdd26421	-0.10273004
68	0xbe266e23	-0.16252951
69	0x3d09b630	0.033621013
70	0xbdc6b37e	-0.09702204
71	0xbe3263ec	-0.1742093
72	0xbe0c4667	-0.13698731
73	0xbe041945	-0.12900265
74	0xbe0630dc	-0.13104576
75	0xbe31bb01	-0.17356493
76	0x3d1223d4	0.0356787
77	0x3e3eefb8	0.18646133
78	0xbe16e7ce	-0.14736864
79	0x3c0a82b8	0.008454017
80	0x3dfec7c4	0.12440446
81	0x3db75c9e	0.08953212
82	0x3d4c5372	0.049884267
83	0xbdc84529	-0.09778816
84	0xbe25a2f6	-0.16175446
85	0xbd480b78	-0.048839062
86	0xbcc9d876	-0.02463935
87	0xbdbff2a0	-0.09372449
88	0xbe13e43e	-0.14442536
89	0xbdec5b4d	-0.11540852
90	0xbd27eaa0	-0.04099524
91	0xbe3dbc78	-0.18528926
92	0xbdab8c90	-0.083764195
93	0xbddaeff0	-0.10690296
94	0xbd03bf41	-0.032164816
95	0x3dcb8c6d	0.099388935
96	0x3d499010	0.049209654
97	0xbcc6dc24	-0.024274893
98	0xbd66d56b	-0.056355875
99	0xbdf99868	-0.12187272
100	0xbd252b65	-0.040324587
101	0xbdb781af	-0.08960282
102	0xbcb2d6c0	-0.021830916
103	0x3e225a10	0.15854669
104	0xbe1a8ca3	-0.15092711
105	0xbdbd62b6	-0.09247343
106	0x3e33ed52	0.17571
107	0xbc8d84c8	-0.01727523
108	0x3cf21074	0.029548861
109	0x3d23dd2b	0.040005844
110	0xbe04ac72	-0.12956408
111	0xbdd57f4b	-0.1042467
112	0xbcee554c	-0.029093407
113	0xba32c200	-0.00068190694
114	0xbe203056	-0.15643439
115	0xbdb46ff4	-0.08810416
116	0xbe0f92e6	-0.14020881
117	0xbe047fc0	-0.12939358
118	0x3d9cc689	0.07655055
119	0x3d60da1e	0.054895513
120	0x3dc6689c	0.096879214
121	0x3db825a6	0.08991556
122	0x3e3fdff4	0.18737775
123	0x3e1612b7	0.14655577
124	0x3e247489	0.1606008
125	0x3e2e59f8	0.17026508
126	0x3e00a2da	0.12562123
127	0x3e0fb301	0.14033128
128	0x3dd46005	0.10369877
129	0x3dd167d0	0.10224879
130	0x3df5f866	0.12010269
131	0xbb9bc050	-0.00475315
132	0x3d9c5d5e	0.07634996
133	0x3e19946b	0.14998023
134	0x3d41a631	0.047277633
135	0x3e067fac	0.1313464
136	0x3c9edae2	0.01939148
137	0x3dce5f1d	0.10076735
138	0x3d0ac948	0.033883363
139	0x3e3dc095	0.18530495
140	0xbc833bac	-0.016019665
141	0xbe0b8dac	-0.13628262
142	0xbca96538	-0.020678148
143	0x3d476c10	0.04868704
144	0x3db3b4bf	0.08774709
145	0x3d712fa7	0.058883335
146	0x3e0c2522	0.1368604
147	0x3d42ac74	0.047527745
148	0x3c813ae6	0.015775155
149	0x3e35e0a2	0.17761472
150	0x3c5e6914	0.013574857
151	0xbb7b4100	-0.0038338304
152	0xbda2d3f9	-0.07950587
153	0x3e39b014	0.18133575
154	0x3c817c14	0.015806235
155	0x3dd18082	0.10229589
156	0x3e16cb08	0.14725888
157	0x3defcb51	0.117087014
158	0x3da73c5b	0.08165809
159	0x3c1b8ee8	0.009494521
160	0x3d8540fe	0.06506537
161	0x3d8f990c	0.07011613
162	0x3d422b4a	0.047404565
163	0x3e347629	0.176232
164	0xbde84df5	-0.11342994
165	0x3b21afc0	0.0024671406
166	0x3dd38004	0.103271514
167	0x3ddb4879	0.107071824
168	0xbdee4861	-0.11634899
169	0xbd92f528	-0.07175666
170	0x3e2ac48c	0.16676539
171	0xbe009e75	-0.12560447
172	0x3be32830	0.006932281
173	0xbe3eb47e	-0.1862354
174	0xbc2bd608	-0.010488041
175	0x3d6611be	0.056169264
176	0xbcf96358	-0.030442879
177	0xbe13e35e	-0.14442202
178	0xbd166678	-0.036718816
179	0x3dd13bef	0.102165096
180	0xbc06c940	-0.008226693
181	0x3e3ca3fb	0.18421929
182	0xbd1d46c4	-0.038397565
183	0x3ced8556	0.028994244
184	0x3c59d868	0.013296224
185	0x3e1f65d1	0.15566184
186	0xbc90a6c4	-0.017657645
187	0x39fa7900	0.00047773868
188	0x3c96b80e	0.018398311
189	0x3e08dd86	0.13365754
190	0x3e36234d	0.17786904
191	0x3e159c56	0.14610419
192	0x3de0139c	0.1094124
193	0x3e26aed0	0.16277623
194	0x3de7964c	0.11307964
195	0x3d8c9b7f	0.06865596
196	0x3dc1fd4f	0.09472143
197	0x3e27b8f5	0.1637915
198	0x3da7fbaf	0.08202302
199	0xbc9a30dc	-0.018822126
200	0x3ce6b48e	0.028162267
201	0xbe0e8b6d	-0.13920374
202	0xbe0bbdd6	-0.13646635
203	0xbe27db88	-0.16392338
204	0xbcb6c3dc	-0.02231019
205	0x3d10361e	0.03520786
206	0xbdde5a9d	-0.10857127
207	0xbd9a0e64	-0.07522276
208	0xbcb69b7a	-0.022290934
209	0xbd82d026	-0.063873574
210	0x3cf5fa50	0.030026585
211	0x3c4bcbc8	0.012438722
212	0xbe19501c	-0.14971966
213	0xbce74206	-0.028229725
214	0xbe2436dc	-0.16036552
215	0xbdac0705	-0.08399776
216	0xbe39a7a6	-0.18130359
217	0x3c29b918	0.010359071
218	0xbe18fdb0	-0.14940524
219	0xbd816828	-0.06318694
220	0xbde30b1a	-0.11086102
221	0xbe39c5ba	-0.18141833
222	0xbca41636	-0.020030122
223	0xbdf928ef	-0.121660106
224	0xbb93f400	-0.004515171
225	0x3ce9d778	0.028545126
226	0xbe114cd4	-0.14189464
227	0xbe200555	-0.15627034
228	0x3d1bb924	0.03801836
229	0xbe32d929	-0.17465653
230	0xbbae58a0	-0.0053206235
231	0x3af12cc0	0.0018400177
232	0xbc1dfbd8	-0.009642564
233	0xbdab1fae	-0.08355652
234	0xbe23fd62	-0.16014627
235	0xbd3ec9b8	-0.046579093
236	0xbd67e393	-0.056613516
237	0xbe1007aa	-0.14065424
238	0xbdefd12c	-0.11709818
239	0xbe2a2c6a	-0.16618505
240	0xbe34fb44	-0.17673975
241	0xbded6558	-0.115915954
242	0x3d22f922	0.039788373
243	0x3c636008	0.013877876
244	0xbd4a1095	-0.04933222
245	0x3c21f0e0	0.009884089
246	0xbe046261	-0.12928154
247	0x3d156710	0.03647524
248	0x3cd58480	0.026064157
249	0xbe1803d2	-0.14845207
250	0xbc3edb18	-0.011648916
251	0xbda51e07	-0.08062368
252	0xbc6b0a20	-0.014345676
253	0xbe2ee3e0	-0.17079115
254	0xbbbf5be0	-0.00583981
255	0xbd23f17f	-0.04002523

conv1.bias f4 [6]
0	0xbdee92d4	-0.11649099
1	0xbdff0b50	-0.124533296
2	0x3c148630	0.009065196
3	0xbd6006ec	-0.0546941
4	0xbdafde07	-0.0858727
5	0xbd3cf8b0	-0.046135604

conv2.weight f4 [16, 6, 5, 5]
0	0xbdbdf631	-0.09275473
1	0xbe0d39f4	-0.13791639
2	0xbe1c5f1b	-0.15270655
3	0xbb30c5e0	-0.0026973411
4	0x3ddba226	0.10724287
5	0xbd35a216	-0.04434403
6	0xbd2e1288	-0.04249814
7	0xbdfbffc8	-0.12304646
8	0xbdeb32a2	-0.11484267
9	0xbdee94a8	-0.11649448
10	0xbdacd890	-0.084397435
11	0xbde7fe50	-0.11327803
12	0xbe10b2d7	-0.14130722
13	0xbddfef08	-0.109342635
14	0xbe050ea2	-0.12993863
15	0xbe091e63	-0.13390498
16	0xbd9f2e40	-0.07772493
17	0xbe07303c	-0.13201994
18	0xbd339607	-0.04384425
19	0xbdc8d46e	-0.09806143
20	0xbe1be5f4	-0.15224439
21	0xbc8690ea	-0.016426522
22	0xbdb99980	-0.09062481
23	0xbccc99e4	-0.024975725
24	0xbd9468d5	-0.072465576
25	0xbd66da78	-0.05636069
26	0xbdc5e7fd	-0.09663389
27	0xbce2c442	-0.027681474
28	0xbcf8a1c2	-0.03035057
29	0xbcf9ac2e	-0.03047761
30	0xb98fcc00	-0.00027427077
31	0xbe097aa6	-0.13425693
32	0xbe0ef73e	-0.13961503
33	0xbd7d0f4a	-0.06178216
34	0xbd8c90de	-0.06863569
35	0xbdbcb893	-0.09214892
36	0xbdbe1d44	-0.09282926
37	0xbda14296	-0.078740284
38	0xbd56bdea	-0.05242721
39	0xbdcf8082	-0.10131933
40	0xbdb0658d	-0.08613119
41	0xbdba43e8	-0.09094983
42	0xbd9cb0cd	-0.076509096
43	0xbd8f46d2	-0.0699593
44	0xbde29f01	-0.11065484
45	0xbdbde5a8	-0.09272319
46	0xbd3e791e	-0.046502225
47	0xbe0e5e05	-0.13903053
48	0xbbcd0cb0	-0.006257616
49	0xbd4f0ad2	-0.05054743
50	0x3dd7caca	0.10536726
51	0xbd1863f3	-0.037204694
52	0xbe1b41ce	-0.15161821
53	0x3b5273c0	0.003211245
54	0xbe18479a	-0.14871064
55	0xbcb4edbc	-0.022086017
56	0xbdc9f623	-0.098614
57	0xbb36e300	-0.0027906299
58	0xbd95bf44	-0.07311872
59	0xbdd7660f	-0.10517513
60	0x3ba75ea0	0.0051077157
61	0xbe0600ee	-0.13086292
62	0xbd045797	-0.032310095
63	0xbc4990b0	-0.012302563
64	0xbdc8e996	-0.09810178
65	0xbd69cef8	-0.057082146
66	0xbd328f74	-0.04359384
67	0x3ba5a830	0.00505545
68	0xbd43cbc8	-0.047801763
69	0xbd8817de	-0.06645177
70	0xbc80f8cc	-0.015743636
71	0xbc5952c8	-0.0132643655
72	0xbdbef9e6	-0.09325008
73	0xbca0a370	-0.019609183
74	0xbd823b69	-0.06358988
75	0xbb6e5040	-0.003636375
76	0xbd040dee	-0.032239847
77	0xbdbb60c8	-0.09149319
78	0xbda8dbc8	-0.08245045
79	0xbe0fc2b0	-0.14039111
80	0xbe00d49e	-0.12581107
81	0xbe0734aa	-0.13203683
82	0xbd857824	-0.06517056
83	0xbd78546e	-0.060627393
84	0xbce67ff8	-0.028137192
85	0xbe1cb55a	-0.15303555
86	0xbd786410	-0.060642302
87	0xbddf1df6	-0.108943865
88	0xbd9dce9c	-0.07705423
89	0xbdb44017	-0.08801287
90	0xbd61e1a9	-0.055146847
91	0xbdd8ee66	-0.10592346
92	0xbe07eb21	-0.13273288
93	0xbcd65e2c	-0.026167952
94	0xbc0945e0	-0.008378476
95	0xbd24b05e	-0.04020726
96	0xbe02cb25	-0.12772806
97	0xbd5305d2	-0.051519223
98	0xbe1b75be	-0.15181634
99	0xbdf5a134	-0.11993638
100	0xbe1c0920	-0.15237856
101	0x3bf1be30	0.0073774084
102	0xbdb51aa8	-0.08842975
103	0xbcad8414	-0.021181144
104	0xbdc7bcbd	-0.09752796
105	0xbda58494	-0.08081928
106	0xbe010b51	-0.12601973
107	0xbdeeabbe	-0.11653851
108	0xbbadd8d0	-0.005305387
109	0x3b55f4e0	0.0032647178
110	0xbd8716b3	-0.065961264
111	0xbd06cbc9	-0.03290919
112	0xbd7b958e	-0.061421923
113	0xbc972b7a	-0.018453348
114	0xbdb805f6	-0.08985512
115	0xbd96cb6d	-0.07363019
116	0xbe1d3000	-0.15350342
117	0xbd87d700	-0.06632805
118	0xbdc903be	-0.09815167
119	0xbd855bed	-0.06511674
120	0xbe1373db	-0.14399664
121	0xbdb2fcf2	-0.08739652
122	0xbd29443e	-0.041324846
123	0xbd53869a	-0.051642038
124	0xbcfcca5c	-0.030858211
125	0xbcc03f66	-0.02346773
126	0xbdb91cde	-0.09038709
127	0xbd430f4e	-0.047622018
128	0xbd8ce7a2	-0.06880118
129	0xbe173d26	-0.1476942
130	0xbc048828	-0.008089103
131	0xbe0df4a7	-0.13862859
132	0xbd59bc5a	-0.05315814
133	0xbd3a8450	-0.04553634
134	0xbd7d8a26	-0.061899327
135	0xbd6b984f	-0.0575183
136	0xbda6f544	-0.081522495
137	0xbd54c9fa	-0.051950432
138	0xbdc0ed02	-0.09420206
139	0xbe16f1b8	-0.14740646
140	0xbe0553d8	-0.13020265
141	0xbe0699a5	-0.13144548
142	0xbc55d388	-0.013050921
143	0xbd575838	-0.052574366
144	0xbcf9395a	-0.030422855
145	0xbde1ba4f	-0.11021864
146	0xbc86a488	-0.016435876
147	0xbdba71e7	-0.091037564
148	0xbe0a91a7	-0.13532124
149	0xbe064044	-0.13110453
150	0xbe1e30f3	-0.1544836
151	0xbd43f1d8	-0.047838062
152	0xbd1c5eaa	-0.038176216
153	0xbe01934c	-0.12653846
154	0xbc6ff068	-0.01464472
155	0xbd9c8487	-0.07642465
156	0xbdea3164	-0.11435202
157	0xbda87e60	-0.08227229
158	0xbe03e96e	-0.12882015
159	0xbdfd4faf	-0.12368714
160	0xbbb22950	-0.0054370537
161	0xbdbc7f3e	-0.09203957
162	0xbd89b24f	-0.06723463
163	0xbe01d517	-0.12678944
164	0xbe19dc48	-0.15025437
165	0xbe13bbdc	-0.14427131
166	0xbc7a64b8	-0.015282802
167	0xbdf3ba20	-0.11900735
168	0xbdf4be26	-0.119503304
169	0xbca919de	-0.020642217
170	0xbdcfab8c	-0.10140142
171	0xbd588be0	-0.05286777
172	0xbd52d5d2	-0.051473446
173	0xbdbc1f5a	-0.09185667
174	0xbe086162	-0.13318399
175	0xbdf7accc	-0.12093505
176	0xbd4e3b3c	-0.05034946
177	0xbdeeadd2	-0.11654247
178	0xbdd8a74a	-0.10578783
179	0xbd34677a	-0.044043995
180	0xbcaf16e6	-0.021373224
181	0xbdd99c50	-0.10625517
182	0xbd245666	-0.04012146
183	0xbda59616	-0.08085267
184	0xbd77b422	-0.060474522
185	0xbd820460	-0.06348491
186	0xbd3008fb	-0.042977314
187	0xbddcc0a2	-0.10778929
188	0xbe1a7871	-0.15085007
189	0xbe17f536	-0.14839634
190	0xbd6569bc	-0.05600904
191	0xbdc2996d	-0.0950192
192	0xbcafac7c	-0.021444552
193	0xbde22791	-0.11042703
194	0xbe06fcf7	-0.13182436
195	0xbe142348	-0.14466584
196	0xbd2b99b5	-0.041894633
197	0xbd0cb0de	-0.03434836
198	0xbdc84c65	-0.09780196
199	0x3e0d5226	0.13800868
200	0xbdc2b41c	-0.095070094
201	0xbdd2c6d6	-0.10291831
202	0xbdcc8fe6	-0.09988384
203	0xbc920524	-0.017824717
204	0xbdba3642	-0.0909238
205	0xbe15d980	-0.14633751
206	0xbd9e8af5	-0.07741348
207	0x3adec9c0	0.0016997382
208	0xbe18c6f6	-0.14919648
209	0xbe1e7412	-0.15473965
210	0xbcb5580c	-0.02213671
211	0xbdfe0126	-0.12402563
212	0xbe11330d	-0.1417963
213	0xbde458c4	-0.11149743
214	0xbde7c212	-0.11316313
215	0xbd719df3	-0.058988523
216	0xbe0c911a	-0.13727227
217	0xbd6a513c	-0.057206377
218	0xbcbac05a	-0.022796798
219	0xbdb44564	-0.08802298
220	0xbd0c9b29	-0.03432766
221	0x3bb14230	0.0054095015
222	0x3d3bab75	0.04581781
223	0xbe0528ec	-0.13003892
224	0xbe162ce9	-0.1466557
225	0xbd1315fb	-0.035909634
226	0x3a9bd040	0.0011887625
227	0xbdf75de8	-0.12078458
228	0xbc88d70a	-0.016704101
229	0xbdd28229	-0.10278732
230	0xbdc566bd	-0.096387364
231	0xbd8b7e55	-0.06811205
232	0xbcb3ea7a	-0.021962393
233	0xbdac1035	-0.08401529
234	0xbdb4d50f	-0.088297
235	0xbdbb7b51	-0.0915438
236	0xbc82540e	-0.015909221
237	0xbe102e6c	-0.14080209
238	0xbe1eff02	-0.15526965
239	0xbd66dc46	-0.056362413
240	0xbe1d519e	-0.15363166
241	0xbbf7cfc0	-0.0075626075
242	0xbdd50a59	-0.10402364
243	0xbc134e18	-0.008990787
244	0xbd98f7b2	-0.07469119
245	0xbe1f0bbc	-0.1553182
246	0xbc3d7510	-0.011563554
247	0xbb720e60	-0.0036934838
248	0x3b3d2e00	0.002886653
249	0xbe10ed28	-0.14152968
250	0xbb9bbe20	-0.0047528893
251	0xbd23a5c9	-0.039953027
252	0xbde7cf74	-0.113188654
253	0xbdae2ea8	-0.08504993
254	0xbdcb70d5	-0.099336304
255	0xbdcf939b	-0.101355754

conv2.bias f4 [16]
0	0x3e126abe	0.14298531
1	0xbde35bb8	-0.11101478
2	0xbd1e41b4	-0.038636878
3	0xbd9cb759	-0.07652158
4	0xbd827cdb	-0.063714705
5	0x3da86c2d	0.08223758
6	0xbe038186	-0.12842378
7	0xbe13d565	-0.14436872
8	0xbccdec62	-0.02513713
9	0xbe04ff9d	-0.12988134
10	0x3dd16139	0.10223622
11	0x3e0b8686	0.13625535
12	0x3da88172	0.08227815
13	0x3e13d525	0.14436777
14	0x3dfb5381	0.122717865
15	0xbdb7be37	-0.089718275

fc1.weight f4 [120, 400]
0	0x3dc2c548	0.09510285
1	0x3d583d14	0.052792624
2	0xbdeddec0	-0.11614752
3	0xbcf3d606	-0.02976514
4	0xbde0dfa6	-0.109801576
5	0x3def020e	0.11670314
6	0xbd95fa19	-0.07323093
7	0xbd0d7935	-0.03453942
8	0xbd1bed92	-0.03806836
9	0xbdce8798	-0.10084456
10	0xbce359d8	-0.027752802
11	0xbddecb10	-0.10878575
12	0xbd667958	-0.056268066
13	0xbdb8640d	-0.09003458
14	0xbdc3a238	-0.09552425
15	0xbd14013e	-0.036133997
16	0xbd36cd14	-0.04462917
17	0xbdb67350	-0.08908713
18	0xbdb17700	-0.086652756
19	0x3ddce73c	0.10786292
20	0xbd88e4fe	-0.06684302
21	0xbdc96a08	-0.09834677
22	0x3dc8ac8a	0.09798534
23	0xbd16075a	-0.036628105
24	0xbdc3144e	-0.09525357
25	0xbda6f844	-0.08152822
26	0xbd6c3e41	-0.057676557
27	0xbd081a71	-0.03322834
28	0xbd33ef36	-0.0439293
29	0xbdd36148	-0.10321289
30	0xbdb65bb3	-0.08904209
31	0xbde03bee	-0.10948931
32	0xbdc86dea	-0.097865894
33	0xbdb351d5	-0.087558426
34	0x3dce084a	0.10060175
35	0xbd374e88	-0.044752628
36	0xbd807f29	-0.06274254
37	0xbddf01e4	-0.108890325
38	0xbce01798	-0.027355
39	0xbd3042dc	-0.043032512
40	0xbcf6e242	-0.030137185
41	0xbd939c58	-0.072075546
42	0x3da03761	0.07823063
43	0xbd47e882	-0.04880572
44	0xbdc8d83b	-0.09806868
45	0xbd7103dc	-0.05884157
46	0xbd12372c	-0.035697147
47	0x3da4a6b0	0.080396056
48	0xbdd0c0e1	-0.10193039
49	0xbdcc71d3	-0.09982648
50	0xbddab050	-0.1067816
51	0xbde8a9b6	-0.11360495
52	0xbd9d823a	-0.07690854
53	0xbd6cd0de	-0.05781638
54	0x3dc1f5bc	0.09470698
55	0x3d2c0a28	0.042001873
56	0xbd9c5516	-0.07633416
57	0xbd437ac5	-0.047724504
58	0xbcf0b0b2	-0.02938113
59	0xbd96892e	-0.07350384
60	0xbd5a6a32	-0.053323932
61	0xbd1f9d18	-0.038968176
62	0xbd39db6e	-0.04537528
63	0xbd64609e	-0.055756204
64	0xbdfb9ce4	-0.12285784
65	0xbd94735d	-0.07248566
66	0xbd8da9b9	-0.06917138
67	0xbd238683	-0.039923202
68	0xbcd90e42	-0.026496056
69	0xbd3d5ca6	-0.046230935
70	0xbdc3c0e6	-0.09558277
71	0xbdbe8dd4	-0.09304395
72	0xbde2be2a	-0.11071427
73	0xbdc47818	-0.095932186
74	0xbd714214	-0.058900908
75	0x3de831fb	0.11337658
76	0xbdbbbf07	-0.09167295
77	0xbd49246d	-0.049107004
78	0x3daeb3d7	0.085303955
79	0xbd7251b8	-0.059159964
80	0xbcfaed92	-0.03063086
81	0x3cc8b634	0.024500944
82	0x3dd57128	0.104219735
83	0x3d1198d6	0.035546146
84	0x3dc4a08e	0.09600936
85	0xbdda641f	-0.10663628
86	0xbd1ead13	-0.038739275
87	0xbdf83d78	-0.12121099
88	0x3d3fd924	0.04683794
89	0xbd8b4d57	-0.06801861
90	0xbdbf8f3c	-0.09353492
91	0x3dd94ace	0.10609971
92	0xbd858907	-0.065202765
93	0x3df44d24	0.11928776
94	0x3cf8c83a	0.030368913
95	0x3d3ab553	0.04558308
96	0xbd436020	-0.047699094
97	0xbd67f4d4	-0.05662997
98	0xbd89edf3	-0.06734838
99	0x3d6ecc59	0.05830035
100	0xbded5e06	-0.11590199
101	0xbdbacc43	-0.09120991
102	0xbd678266	-0.056520842
103	0xbdc52edb	-0.096280776
104	0xbd9bc679	-0.07606215
105	0xbde89318	-0.11356181
106	0xbd23e7e7	-0.04001608
107	0xbdd65a33	-0.10466423
108	0xbda725c9	-0.08161504
109	0xbd61f575	-0.055165727
110	0xbd4382be	-0.047732107
111	0x3ce08f3e	0.027412053
112	0xbd5cf724	-0.05394663
113	0xbd519d3e	-0.05117535
114	0xbdf3ef00	-0.1191082
115	0xbd41b916	-0.047295652
116	0xbdc5fbf9	-0.096672006
117	0x3d090606	0.03345301
118	0xbcea07ea	-0.028568227
119	0xbd8c881b	-0.068618976
120	0xbd3ec1c6	-0.046571516
121	0xbdc5e706	-0.09663205
122	0xbde75280	-0.112950325
123	0xbdbd4933	-0.09242477
124	0xbd97512d	-0.0738853
125	0xbd4b1ad6	-0.04958614
126	0x3df017fa	0.11723323
127	0xbd9ff190	-0.07809746
128	0x3d5403ae	0.05176132
129	0xbd60e7ec	-0.054908678
130	0xbdf7cbde	-0.120994315
131	0x3d7e6f1a	0.062117673
132	0xbd172857	-0.036903705
133	0xbddf1e74	-0.1089448
134	0xbd92f8ce	-0.07176362
135	0xbde23054	-0.11044374
136	0xbda701fc	-0.08154675
137	0xbd398686	-0.045294307
138	0xbd9c8e0f	-0.07644283
139	0xbd492f97	-0.04911765
140	0xbd9e1b32	-0.07720031
141	0xbdcfb4ef	-0.10141932
142	0xbdb2b3a9	-0.08725674
143	0xbdeae300	-0.11469078
144	0xbcf3ae78	-0.02974628
145	0xbdb88a25	-0.09010724
146	0xbd86bc43	-0.06578877
147	0xbcf890b4	-0.030342437
148	0xbdb5ed5b	-0.088831626
149	0xbd868108	-0.065675795
150	0xbd93911e	-0.07205413
151	0xbd2aae8c	-0.041670367
152	0x3d7f3ef0	0.06231588
153	0x3da3e4b1	0.08002604
154	0x3d3f1116	0.046647154
155	0xbda32e09	-0.07967765
156	0x3d0876cc	0.03331642
157	0xbdfbe16b	-0.122988544
158	0x3cdf1e8e	0.02723625
159	0xbdebe779	-0.11518759
160	0xbdc37543	-0.0954385
161	0xbdcee5af	-0.101024024
162	0x3ccd02e0	0.025025785
163	0xbddaea93	-0.10689273
164	0xbdaf59df	-0.085620634
165	0x3dd8120e	0.10550319
166	0x3deca198	0.11554259
167	0x3de2a33c	0.11066291
168	0xbdb7fbe5	-0.08983592
169	0xbdedfa2a	-0.11619981
170	0x3dfe5160	0.12417865
171	0x3d7b6f3a	0.06138537
172	0xbd319afe	-0.043360703
173	0xbd99e13f	-0.075136654
174	0xbdded782	-0.108809486
175	0xbd8f92b0	-0.070104
176	0xbd8f91cf	-0.07010233
177	0x3dc5300a	0.09628303
178	0xbda78ada	-0.08180781
179	0xbdcfa1ca	-0.10138281
180	0xbdd4226b	-0.10358127
181	0x3d592677	0.0530152
182	0xbd0e2020	-0.034698606
183	0xbd970d91	-0.073756345
184	0x3dfad0a4	0.12246826
185	0xbdc17096	-0.09445302
186	0xbdc4e608	-0.096141875
187	0xbdb29d82	-0.087214485
188	0xbde52994	-0.11189571
189	0xbdaed157	-0.08536022
190	0xbdb52a12	-0.08845915
191	0x3dfe07b2	0.124038115
192	0xbdc233b8	-0.09482521
193	0xbdb7c578	-0.08973211
194	0xbde16249	-0.110050745
195	0xbdd15839	-0.10221905
196	0xbdcd05f0	-0.10010898
197	0x3dfb9b37	0.12285464
198	0xbdbf78ef	-0.09349238
199	0xbd8df6fe	-0.06931876
200	0xbd41f6d2	-0.047354527
201	0x3de17786	0.110091254
202	0x3d750651	0.059820477
203	0xbd909062	-0.07058789
204	0xbdc6f41d	-0.0971453
205	0xbdde9d74	-0.108698756
206	0xbd55c98b	-0.05219416
207	0x3d987196	0.0744354
208	0xbde73d04	-0.11290935
209	0xbda30334	-0.07959595
210	0xbcf994ea	-0.030466516
211	0xbdbe6b6f	-0.09297835
212	0xbdb983ba	-0.09058328
213	0xbcd74088	-0.026275888
214	0xbde64e8a	-0.11245449
215	0xbdf71403	-0.12064364
216	0xbd86eeef	-0.06588542
217	0xbdb06ac2	-0.086141124
218	0xbd42737a	-0.04747341
219	0xbd29684d	-0.041359235
220	0xbd1bd330	-0.0380432
221	0xbcc9aafa	-0.02461766
222	0xbdd67e49	-0.10473306
223	0xbd1d5d0a	-0.038418807
224	0xbda926cf	-0.08259355
225	0x3d27203f	0.040802237
226	0x3d06bcd9	0.032894943
227	0xbd90b671	-0.07066048
228	0xbdde18b8	-0.108445585
229	0xbd5b23ab	-0.053500813
230	0xbd8cfbab	-0.06883939
231	0xbd2670ad	-0.0406348
232	0xbd122e8d	-0.035688926
233	0xbd0b6376	-0.0340304
234	0x3dec90bc	0.115510434
235	0xbd3ec126	-0.04657092
236	0xbd8b52ca	-0.068029
237	0xbdda1e96	-0.10650365
238	0xbd903b6c	-0.07042584
239	0x3d09a20c	0.033601806
240	0xbdd62b31	-0.10457457
241	0xbd786248	-0.060640603
242	0xbdf89d1a	-0.1213934
243	0xbdee6236	-0.11639826
244	0xbd92a489	-0.07160289
245	0xbd0ab8db	-0.0338677
246	0x3ced3c94	0.02895955
247	0xbd71e568	-0.05905667
248	0xbd4c57a2	-0.04988826
249	0xbce8b7c4	-0.028407939
250	0x3d6d9a11	0.058008257
251	0xbcf751e0	-0.030190408
252	0xbdb526eb	-0.08845314
253	0xbce6351e	-0.0281015
254	0xbd28971a	-0.041159727
255	0xbd3de10f	-0.04635721

fc1.bias f4 [120]
0	0xbd4605f9	-0.04834554
1	0xbcd312b4	-0.025765754
2	0xbd382a99	-0.0449625
3	0xbd36ce80	-0.044630527
4	0xbdcf0bcb	-0.10109671
5	0xbcf4f6b8	-0.0299028
6	0xbd86dc1f	-0.065849535
7	0xbd85f907	-0.06541639
8	0xbdfc9dbe	-0.123347744
9	0xbdaf06e3	-0.085462354
10	0xbddc4f6c	-0.10757336
11	0x3df3a9cc	0.118976206
12	0xbdcf4f30	-0.10122526
13	0xbd5e69be	-0.054300062
14	0xbd7c9184	-0.061662212
15	0xbdc03344	-0.09384778
16	0xbd2d00df	-0.04223716
17	0xbd8ea29c	-0.06964609
18	0xbdab289a	-0.083573535
19	0xbd78571a	-0.06062994
20	0xbdf76176	-0.12079136
21	0xbd847484	-0.06467536
22	0xbdb56515	-0.088571705
23	0xbdd891dc	-0.105746955
24	0xbd583a08	-0.052789718
25	0xbd7636ee	-0.06011098
26	0xbd9082d5	-0.07056204
27	0xbdd62564	-0.104563504
28	0xbdf85b7f	-0.121268265
29	0xbd9a4b7f	-0.07533931
30	0xbd9ab079	-0.07553191
31	0xbcdea82e	-0.027179804
32	0xbdd7c79e	-0.10536121
33	0xbccd978a	-0.025096674
34	0xbd973c24	-0.07384518
35	0xbd688d92	-0.056775637
36	0xbd91b02f	-0.071136825
37	0xbdc49552	-0.09598793
38	0xbd940c5e	-0.07228921
39	0xbd45a59f	-0.04825365
40	0xbd797c04	-0.060909286
41	0xbda32af1	-0.07967175
42	0xbda97cf4	-0.08275786
43	0xbdbab890	-0.09117234
44	0xbdd71287	-0.10501581
45	0xbd9d1e16	-0.07671754
46	0xbd4a06ae	-0.049322776
47	0xbda23571	-0.079203494
48	0xbdeba936	-0.11506884
49	0xbd68c13e	-0.056824915
50	0xbd829d47	-0.063776545
51	0xbd1a0efb	-0.037611943
52	0xbde5240c	-0.11188516
53	0xbddc7643	-0.10764744
54	0xbde57aba	-0.11205049
55	0xbd94578a	-0.07243259
56	0xbd857b99	-0.06517715
57	0xbd93a30c	-0.07208833
58	0xbde5882c	-0.11207613
59	0xbd9699a3	-0.07353523
60	0xbdf20f9a	-0.11819382
61	0xbd79f7ff	-0.061027523
62	0xbdd8b554	-0.105814606
63	0xbdda14b4	-0.1064848
64	0xbd8b5254	-0.06802812
65	0xbd211e41	-0.039335493
66	0xbd16e519	-0.03683958
67	0xbd2593a9	-0.040424023
68	0xbd65769a	-0.05602131
69	0xbdfe00f8	-0.124025285
70	0xbd55c4e4	-0.052189723
71	0xbd885749	-0.06657273
72	0xbdd088a3	-0.101823114
73	0xbda661fc	-0.08124158
74	0xbd964ce8	-0.073388875
75	0xbd5dad39	-0.054120276
76	0xbdc5b1ba	-0.09653039
77	0xbd403437	-0.046924796
78	0xbd3e6fcf	-0.046493348
79	0xbde95460	-0.113930464
80	0xbd8161d5	-0.06317488
81	0xbdd37d7f	-0.10326671
82	0xbdece7a6	-0.11567621
83	0xbdab2518	-0.083566844
84	0xbdd6f524	-0.104959756
85	0xbdc018ae	-0.09379707
86	0xbcdda08c	-0.027054094
87	0xbcca32dc	-0.024682455
88	0xbd2a1764	-0.041526213
89	0xbdac8b9d	-0.084250666
90	0xbdb3b237	-0.08774226
91	0xbd9ceae7	-0.076619916
92	0xbd6eefa9	-0.058334026
93	0xbdbd8ff0	-0.092559695
94	0xbce7504a	-0.028236527
95	0xbd8ef2c8	-0.069799006
96	0xbdb58e6d	-0.08865056
97	0xbd01944c	-0.031635568
98	0xbd065607	-0.032796886
99	0xbd911980	-0.07084942
100	0xbdbd76d5	-0.09251181
101	0xbd6e54c4	-0.058186308
102	0xbda86d5b	-0.08223983
103	0xbd8c3540	-0.06846094
104	0xbd94fc53	-0.072746895
105	0xbd3cffde	-0.04614245
106	0xbd29364e	-0.041311555
107	0xbdfd22ce	-0.12360154
108	0xbcea4252	-0.028596077
109	0xbdc8b396	-0.09799878
110	0xbde6c227	-0.112675
111	0xbd1bd767	-0.03804722
112	0xbdd0b2e3	-0.1019037
113	0xbddd41c8	-0.108035624
114	0xbde5a217	-0.11212557
115	0xbdbb2a04	-0.09138873
116	0xbd981179	-0.07425208
117	0xbdf61908	-0.12016493
118	0xbd0ee70f	-0.034888323
119	0xbd658cc4	-0.056042448

fc2.weight f4 [84, 120]
0	0x3e0174a5	0.12642153
1	0xbd969a5a	-0.07353659
2	0xbc8539c4	-0.016262896
3	0xbe101a7e	-0.14072606
4	0xbd9c768b	-0.07639798
5	0xbdf901b8	-0.12158531
6	0x3de6bca0	0.11266446
7	0x3dd86106	0.10565381
8	0xbc51a6f4	-0.012796152
9	0xbc843af4	-0.016141392
10	0xbce078aa	-0.027401287
11	0xbcb992e2	-0.022653047
12	0xbd161daf	-0.036649402
13	0xbd5a8b96	-0.053355776
14	0xbd669d5c	-0.056302413
15	0xbe03f2b6	-0.12885556
16	0xbe04a161	-0.12952186
17	0x3c7b73c8	0.015347429
18	0x3d48aca0	0.048992753
19	0xbc6e0a58	-0.014528833
20	0xbdd7ca20	-0.10536599
21	0xbe01b9e6	-0.12668571
22	0xbd90f265	-0.07077483
23	0xbdf5c19f	-0.11999821
24	0xbd95d780	-0.07316494
25	0xbd9aa59f	-0.07551121
26	0xba424400	-0.00074106455
27	0x3db04aa0	0.086079836
28	0xbe08adb5	-0.13347514
29	0xbd947e49	-0.072506495
30	0xbdfe1d44	-0.12407926
31	0xbe1209d4	-0.14261562
32	0xbe1c9f32	-0.15295103
33	0x3c15d590	0.009145156
34	0xbdd81dc4	-0.10552552
35	0xbcea4c14	-0.02860073
36	0xbd5eab30	-0.054362476
37	0xbdd28b5e	-0.102804884
38	0xbe1fdcbf	-0.15611552
39	0xbda299ea	-0.07939513
40	0xbe0fc960	-0.14041662
41	0xbd4d7710	-0.050162375
42	0xbd2cbd32	-0.04217262
43	0xbc152ce8	-0.009104945
44	0xbe2925ac	-0.16518277
45	0xbdbc4978	-0.091937006
46	0xbdcb1c98	-0.09917563
47	0x3bce34b0	0.006292902
48	0xbcb462de	-0.0220198
49	0xbe191172	-0.14948061
50	0xbd66af61	-0.056319598
51	0xbe010b20	-0.126019
52	0xbdf161c6	-0.11786227
53	0xbe02f569	-0.12788929
54	0xbd8cbaab	-0.068715416
55	0xbe0c5d66	-0.13707504
56	0x3cef3894	0.029201783
57	0xbdaa007d	-0.083008744
58	0xbe10a2aa	-0.14124551
59	0xbe07975f	-0.13241337
60	0xbd777d18	-0.060422033
61	0xbd3a4c23	-0.045482766
62	0x3b7a8d60	0.0038231239
63	0xbd0833a9	-0.033252392
64	0x3c863a8c	0.01638534
65	0xbe0c4270	-0.13697219
66	0x3bdf7570	0.0068194196
67	0x3b001660	0.0019544587
68	0xbd90e0b9	-0.070741124
69	0xbe09aa36	-0.13443837
70	0xbc868246	-0.016419541
71	0xbe22011a	-0.15820733
72	0xbe1fe752	-0.15615585
73	0x3dc7165a	0.0972106
74	0xbd9db759	-0.077009864
75	0x3d195963	0.03743876
76	0xbdbde9c4	-0.09273103
77	0xbd025d20	-0.031827092
78	0xbdae0d94	-0.084986836
79	0xbcea2f36	-0.028586965
80	0xbe23b0f8	-0.15985477
81	0xbd90b740	-0.07066202
82	0x3dc9bff6	0.09851067
83	0xbe06e26b	-0.13172309
84	0x3b5c7480	0.0033638775
85	0xbe0f9074	-0.14019948
86	0x3e02ce0b	0.12773912
87	0xbdb8cb90	-0.090232015
88	0xbda1ef93	-0.07907023
89	0xbe1b2914	-0.15152389
90	0xbe1fed96	-0.15617976
91	0xbcc5b018	-0.02413182
92	0xbc993162	-0.018700305
93	0xbd2de31b	-0.042452913
94	0xbd73f6cb	-0.059561532
95	0xbdf7918e	-0.12088309
96	0xbdfe63a8	-0.12421352
97	0xbe034976	-0.12820992
98	0xbddd50f2	-0.10806455
99	0xbd5d67d6	-0.054054104
100	0xbe19392a	-0.14963213
101	0xbce654d8	-0.028116629
102	0xbc40b790	-0.011762515
103	0xbdbe4b0c	-0.09291658
104	0xbdfcfc1b	-0.12352773
105	0xbda1b1a1	-0.07895208
106	0xbdad472a	-0.08460839
107	0x3c4fa400	0.012673378
108	0xbce1d6fa	-0.02756833
109	0x3ced63d2	0.028978262
110	0xbd8fc117	-0.07019251
111	0xbc8ee6a0	-0.017443955
112	0xbdc87171	-0.09787262
113	0xbdec8734	-0.115492254
114	0x3c3aeac8	0.011408515
115	0xbdcc7196	-0.09982602
116	0xbd3f7258	-0.046739906
117	0xbce82f38	-0.028342828
118	0xbdc0f49c	-0.094216555
119	0xbdd73e09	-0.10509879
120	0x3c33dda0	0.0109781325
121	0x39276000	0.00015962124
122	0xbdb640e9	-0.088990994
123	0xbd060ee9	-0.032729063
124	0xbca003ba	-0.019533027
125	0xbd363c48	-0.044491082
126	0x3c0840e8	0.008316256
127	0xbd99fae7	-0.07518559
128	0x3dd2364e	0.10264264
129	0xbdc87260	-0.0978744
130	0x3db6a546	0.08918242
131	0xbd6f4fa3	-0.058425557
132	0x3de45aea	0.11150153
133	0xbdc68829	-0.09693939
134	0xbe128740	-0.14309406
135	0xbe076b10	-0.13224435
136	0xbdd46dde	-0.10372518
137	0x3de6422e	0.112430915
138	0xbb5e48c0	-0.0033917874
139	0xbe1594d0	-0.14607549
140	0x3d599a7b	0.05312584
141	0xbc23c3c0	-0.009995401
142	0xbdc60331	-0.096685775
143	0xbe1db679	-0.15401639
144	0x3c4c1960	0.012457222
145	0xbcc25d18	-0.023726031
146	0x3d8802b9	0.06641144
147	0x3c0bc940	0.008531868
148	0xbd9c529f	-0.07632946
149	0x3dfd614c	0.123720735
150	0xbe1d74b4	-0.1537655
151	0xbd7375e5	-0.059438605
152	0xbe1129a2	-0.14176038
153	0xbde566d2	-0.11201252
154	0xbd1e2864	-0.03861274
155	0xbbd70d80	-0.0065628886
156	0xbe13b9d1	-0.14426352
157	0xbdb50b3c	-0.088400334
158	0xbdabb0a5	-0.08383302
159	0xbd1e25d6	-0.038610302
160	0x3d6bcc76	0.057568036
161	0x3e0e76ae	0.1391246
162	0xbe02929c	-0.1275124
163	0x3accc200	0.0015621781
164	0xbe17c84f	-0.14822505
165	0xbe13b94a	-0.14426151
166	0xbd7effc7	-0.062255647
167	0xbde67dfe	-0.112545
168	0xbe0b3dad	-0.13597746
169	0x3e118e9a	0.14214554
170	0x3c01da80	0.00792563
171	0x3d4a2f8d	0.049361754
172	0xbc50edac	-0.012751978
173	0xbd0aa1e2	-0.03384579
174	0xbe27fe24	-0.1640554
175	0xbe238cb8	-0.15971649
176	0xbd27c222	-0.040956624
177	0xbb6c47a0	-0.0036053434
178	0xbcf72820	-0.0301705
179	0xbd350b6a	-0.04420034
180	0xbd48424a	-0.048891343
181	0xbe1dc3e9	-0.15406765
182	0x3aef35c0	0.0018250272
183	0xbdfe9128	-0.1243003
184	0x3d28fbed	0.04125588
185	0xbd65b4bd	-0.05608057
186	0xbd9fb971	-0.07799042
187	0xbdca7351	-0.09885276
188	0xbd7c3984	-0.06157829
189	0xbe1a6166	-0.15076217
190	0xbe2285c2	-0.15871337
191	0xbc8a5908	-0.016888157
192	0xbbb8d1f0	-0.005640261
193	0xbe0d9300	-0.13825607
194	0xbdcd51e2	-0.100253835
195	0xbde955ac	-0.11393294
196	0x3dba0cac	0.09084448
197	0x3dab7cdd	0.08373425
198	0xbe1f22f5	-0.15540679
199	0xbdc5220a	-0.09625633
200	0x3e193e98	0.14965284
201	0xbe1d7d26	-0.15379772
202	0x3c143680	0.009046197
203	0xbd90098a	-0.070330694
204	0xbe1465e2	-0.1449199
205	0x3dc6868c	0.096936315
206	0xbe27a509	-0.1637155
207	0x3c4df780	0.012571216
208	0x3ded131c	0.115759104
209	0x3a817a00	0.0009878278
210	0x3bd06ee0	0.0063608736
211	0x3e14c276	0.14527306
212	0xbc2af5a8	-0.010434546
213	0xbd8ac13f	-0.0677514
214	0x37cbf000	2.4311244e-05
215	0xbded2406	-0.115791366
216	0xbd167734	-0.036734775
217	0xbdafbe5d	-0.08581231
218	0xbe1f4988	-0.15555394
219	0x3d915e83	0.07098105
220	0xbd59afe7	-0.05314627
221	0xbdf1cbed	-0.11806474
222	0xbd9d9436	-0.076942846
223	0x3d67c258	0.056581825
224	0xbddff82c	-0.10936007
225	0xbc1c5d18	-0.00954368
226	0xbd43f932	-0.047845073
227	0xbc155180	-0.009113669
228	0xbdd0c6df	-0.10194182
229	0xbd7e8d30	-0.062146366
230	0xbe033ee0	-0.12816954
231	0x3d052f33	0.032515716
232	0x3cfe2a7c	0.031026118
233	0xbd72dd6f	-0.059293207
234	0x3bebb400	0.0071930885
235	0xbd79438e	-0.06085544
236	0x3d8293de	0.0637586
237	0xbe05b369	-0.13056721
238	0xbc87dce4	-0.016584821
239	0xbd81990a	-0.06328018
240	0xbd2e4bad	-0.04255264
241	0xbda13754	-0.07871881
242	0x3e18013a	0.14844218
243	0xbe013fba	-0.12621966
244	0xbdf96a4a	-0.12178476
245	0xbe171b63	-0.14756541
246	0xbdcdb08a	-0.10043438
247	0xbd90b0a2	-0.0706494
248	0xbc388d70	-0.01126419
249	0xbc081598	-0.00830593
250	0x3de9a80e	0.11409007
251	0xbd966520	-0.07343507
252	0x3bd2fae0	0.006438598
253	0xbe263a3a	-0.16233149
254	0xbe19ba6a	-0.15012518
255	0xbdb7cf6d	-0.0897511

fc2.bias f4 [84]
0	0xbe087da8	-0.13329184
1	0xbded020e	-0.115726575
2	0xbe0635e8	-0.13106501
3	0x3de7d4b8	0.1131987
4	0x3e1e7dc2	0.1547766
5	0xbe1ba17a	-0.15198317
6	0xbd0420b4	-0.03225775
7	0xbd25e2b0	-0.04049939
8	0xbdc2e6db	-0.095166884
9	0xbe15acc3	-0.14616685
10	0xbe0926f8	-0.13393772
11	0x3e04fd9d	0.12987371
12	0xbe0e2f0b	-0.13885133
13	0xbd53a1ce	-0.05166798
14	0xbd1e775d	-0.038688052
15	0xbd31844e	-0.043339066
16	0xbe0c860c	-0.1372301
17	0xbe10de40	-0.14147282
18	0x3c2ec218	0.010666393
19	0xbd7c8444	-0.061649576
20	0xbdfe5d91	-0.1242019
21	0xbdf8e090	-0.12152207
22	0xbde5aa1f	-0.11214089
23	0xbde2fdf6	-0.110835955
24	0xba6c8100	-0.0009021908
25	0x3c50b700	0.012738943
26	0xbe277020	-0.16351366
27	0xbd58030c	-0.05273728
28	0x3b270d00	0.0025489926
29	0xbdecd1d9	-0.11563463
30	0xbe187124	-0.1488691
31	0xbde49801	-0.11161805
32	0xbd2761ea	-0.040864863
33	0xbdae89f1	-0.08522404
34	0xbdc3fe79	-0.09570021
35	0x3e23217e	0.15930745
36	0xbd2897c4	-0.04116036
37	0x3c0423f8	0.008065216
38	0x3e286e20	0.1644826
39	0xbde70c08	-0.11281592
40	0xbd9e14f3	-0.077188395
41	0x3b6c6520	0.0036071017
42	0xbe0fc278	-0.14039028
43	0xbd4c3d3b	-0.04986308
44	0x3ddbfa53	0.10741105
45	0xbdc14bf9	-0.09438319
46	0xbe080050	-0.13281369
47	0xbdde4afd	-0.10854147
48	0xbd4c0930	-0.04981345
49	0xbe1df2ae	-0.15424606
50	0xba3f4f80	-0.0007297918
51	0xbe084c69	-0.13310398
52	0xbdcb25bd	-0.099193074
53	0xbe1cd1bd	-0.15314384
54	0xbdf2cc82	-0.11855413
55	0x3c220f58	0.009891354
56	0xbd000e29	-0.031263504
57	0xbcd9989a	-0.026562024
58	0xbe1f38be	-0.15548989
59	0xbce5d9cc	-0.028057955
60	0xbcdd6b4e	-0.027028706
61	0xbe16163a	-0.14656916
62	0xbd79dbd9	-0.06100068
63	0xbe1f7130	-0.15570521
64	0xbe037fa3	-0.12841658
65	0xbc25ae60	-0.010112375
66	0xbe0d4c06	-0.13798532
67	0xbdc479ea	-0.09593566
68	0xbdfd1140	-0.12356806
69	0xbdf4ff3a	-0.11962743
70	0xbd5a0eaa	-0.05323664
71	0xbe135ed4	-0.14391643
72	0xbdf0497f	-0.11732768
73	0xbe26d305	-0.16291435
74	0x3c06ee60	0.008235544
75	0xbd55c470	-0.05218929
76	0xbd20a523	-0.039219987
77	0xbd838920	-0.06422639
78	0xbdfa27b9	-0.12214608
79	0xbce041cc	-0.027375124
80	0xbdf76e08	-0.12081534
81	0xbe0d3af0	-0.13792014
82	0xbe1bde2f	-0.15221475
83	0xbd75492c	-0.059884235

fc3.weight f4 [10, 84]
0	0x3ca56bd4	0.020193018
1	0xbd8ffcdc	-0.07030651
2	0xbba89230	-0.00514438
3	0xbe314ea4	-0.17315155
4	0xbe2386bc	-0.15969366
5	0xbdd63f67	-0.10461312
6	0xbd83bb4b	-0.06432208
7	0xbd600846	-0.05469539
8	0xbd88001d	-0.066406466
9	0xbd0795e0	-0.033101916
10	0x3bfcdf40	0.007717043
11	0xbdfab4a2	-0.12241484
12	0x3c373990	0.011183158
13	0xbddda55c	-0.108225554
14	0xbdb654aa	-0.08902867
15	0x3a9dc300	0.0012036264
16	0xbc293f50	-0.010330036
17	0xbd055690	-0.032553256
18	0xbd1aa160	-0.037751555
19	0xbd35d920	-0.04439652
20	0xbde45f2a	-0.111509636
21	0xbcd03720	-0.02541691
22	0xbd5d0ec2	-0.053969152
23	0xbe06bee8	-0.13158762
24	0xbdba5df6	-0.09099953
25	0xbe02281c	-0.12710613
26	0xbde601b8	-0.112307966
27	0xbdb3141f	-0.08744072
28	0xbbe4bb40	-0.0069803298
29	0xbd4f6bc5	-0.050639886
30	0xbded0208	-0.11572653
31	0xbdb5c8ac	-0.08876166
32	0xbd4ba0a0	-0.04971373
33	0xbe040e3a	-0.12896052
34	0x3c4d32a0	0.012524277
35	0xbe04f808	-0.12985241
36	0xbdd6fcca	-0.104974344
37	0xbda5cf93	-0.08096232
38	0xbe1a5d3e	-0.15074632
39	0xbd90c848	-0.070694506
40	0xbcda3e98	-0.026641175
41	0x3c905110	0.017616779
42	0x3bea71c0	0.0071546733
43	0xbd3b1554	-0.045674637
44	0xbe0da5da	-0.13832799
45	0xbe2ba2e7	-0.16761361
46	0xbe1a3ced	-0.15062304
47	0xbad4abc0	-0.0016225502
48	0xbdbe621a	-0.09296055
49	0xbd6269df	-0.055276748
50	0x3c907c1c	0.017637305
51	0xbe0044b1	-0.12526204
52	0x3c40d880	0.011770368
53	0xbdfb8c26	-0.122825906
54	0xbe1074de	-0.14107081
55	0x3ca70ea0	0.020392716
56	0xbd88218b	-0.06647023
57	0xbdc7c25a	-0.097538665
58	0xbd41a556	-0.047276817
59	0xbd4b3e7a	-0.04962013
60	0xbd9ce6f0	-0.07661235
61	0xbdb6ffc6	-0.08935504
62	0x3e08868a	0.13332573
63	0xbe050bf9	-0.12992848
64	0xbe0eda0c	-0.13950366
65	0xbe0f938a	-0.14021125
66	0xbe0b2b8e	-0.13590834
67	0xbdf8be2e	-0.12145649
68	0xbe018130	-0.12646937
69	0xbe371e9e	-0.17882773
70	0xbc2a79c8	-0.0104050115
71	0xbe36bc55	-0.1784528
72	0xbd0909a6	-0.033456467
73	0xbd9c2d55	-0.07625834
74	0xbd2ff55b	-0.0429586
75	0xbdee3a2b	-0.116321884
76	0xbdf5a7be	-0.11994885
77	0x3ccac80c	0.024753593
78	0xbe0223dc	-0.12708992
79	0xbc0a0ae0	-0.008425444
80	0xbe1cfa32	-0.15329817
81	0xbdefad04	-0.11702922
82	0x3d671395	0.05641516
83	0x3be5cde0	0.0070130676
84	0xbc92f7bc	-0.017940395
85	0xbe0543bd	-0.13014121
86	0x3ce0a6d8	0.027423307
87	0x3c1044b8	0.008805446
88	0xbe39fd9a	-0.18163148
89	0xbd11db7d	-0.03560971
90	0xbe24c72a	-0.160916
91	0xbcef51a2	-0.02921373
92	0x3cabfc44	0.020994313
93	0xbd365e76	-0.04452368
94	0xbdc9e1e1	-0.09857536
95	0xbe1763da	-0.14784184
96	0xbe2c1ac4	-0.16807085
97	0xbd23be58	-0.039976448
98	0x3bdfcaa0	0.0068295747
99	0x3c9b6438	0.018968686
100	0xbdd8fd6b	-0.10595211
101	0xbe19c9ca	-0.15018383
102	0xbc35f8d8	-0.011106692
103	0x3ceac1c4	0.028656848
104	0xbdfcd593	-0.123454235
105	0xbe1139ca	-0.14182201
106	0xbcb5804a	-0.0221559
107	0xbe2423af	-0.16029237
108	0xbe2cf539	-0.1689042
109	0xbe02d90c	-0.1277811
110	0xbd92e4d9	-0.071725555
111	0x3b93a9d0	0.004506327
112	0xbe06e500	-0.13173294
113	0x3c5afde0	0.013366193
114	0xbd302192	-0.043000765
115	0xbdf3c1da	-0.119022086
116	0x3d8a7a7c	0.06761643
117	0xbd1bbdfc	-0.03802298
118	0xbe30c23c	-0.17261595
119	0xbe37dbdb	-0.17954962
120	0xbdd99c20	-0.106254816
121	0x3cd44354	0.02591101
122	0xbcfd6bd6	-0.03093521
123	0xbcbdafda	-0.023155142
124	0x3e1557c8	0.14584267
125	0xbcbd2332	-0.023088071
126	0xbc40b8c4	-0.011762802
127	0xbce96ce8	-0.028494313
128	0xbe20d672	-0.15706804
129	0xbcbe3140	-0.023216844
130	0xbe25de52	-0.1619809
131	0xbdfcf688	-0.123517096
132	0xbe26b0f4	-0.1627844
133	0xbdc2a1ea	-0.09503539
134	0xbe17f3c0	-0.14839077
135	0xbd0fdd17	-0.035122957
136	0xbcd1b6c8	-0.025599852
137	0x3dd44698	0.10365027
138	0xbe2b38a2	-0.16720822
139	0x3e190e13	0.14946775
140	0xbd5be001	-0.053680424
141	0xbde5d363	-0.112219594
142	0xbd9b9022	-0.075958505
143	0xbe38240c	-0.17982501
144	0xbe0d54aa	-0.13801828
145	0xbb0950c0	-0.0020952672
146	0xbdbe0c6e	-0.092797145
147	0xbe22b6e0	-0.15890074
148	0xbe1e6de2	-0.15471604
149	0xbc369c98	-0.011145733
150	0xbd6343e2	-0.05548466
151	0xbdbcd456	-0.09220187
152	0xbd2d98a0	-0.042381883
153	0xbe212b30	-0.15739131
154	0x3b42b4a0	0.0029709712
155	0xbdc02b2f	-0.093832366
156	0xbd24e253	-0.040254902
157	0xbd0ea626	-0.03482642
158	0xbda6c997	-0.08143919
159	0xbe118c64	-0.14213711
160	0xbcfe72e4	-0.031060643
161	0xbdb3b11b	-0.087740146
162	0x3cb9da38	0.022687063
163	0xbdd4f945	-0.10399107
164	0xbd2b1737	-0.041770186
165	0xbd0fc595	-0.03510054
166	0x3d329422	0.0435983
167	0xbd094cec	-0.033520624
168	0xbd8283b4	-0.06372777
169	0xbdae7a92	-0.08519472
170	0xbe06fdcb	-0.13182752
171	0x3d66936d	0.05629294
172	0x3bfd5540	0.00773111
173	0xbe35a374	-0.17738134
174	0x3cb4cdc8	0.02207078
175	0xbd08a5b4	-0.03336115
176	0xbd5c2cf7	-0.05375382
177	0xbdd11232	-0.102085486
178	0xbdb4522d	-0.08804736
179	0xbddb5bbe	-0.10710858
180	0xbd7945bb	-0.060857516
181	0xbd11c5be	-0.035588972
182	0xbde99b86	-0.11406617
183	0xbe3124aa	-0.17299142
184	0xbce8b22e	-0.028405275
185	0xbe0dde20	-0.13854265
186	0xbe0d6e01	-0.13811494
187	0x3c414ed8	0.011798583
188	0xbe229971	-0.15878846
189	0xbdc86abf	-0.09785985
190	0xbe29abc2	-0.16569427
191	0xbb81a950	-0.003956951
192	0x3ba3c160	0.0049974173
193	0xbd9aa605	-0.07551197
194	0xbd489e0a	-0.048978843
195	0xbdf63d5e	-0.120234236
196	0xbe22b686	-0.1588994
197	0xbdee7418	-0.11643237
198	0xbde1f32a	-0.11032708
199	0xbd7b94ec	-0.06142132
200	0xbe328015	-0.17431672
201	0xbd91dcd9	-0.071222015
202	0xbe087209	-0.13324751
203	0x3d6c5ecc	0.057707593
204	0xbe30010a	-0.17187896
205	0xbe38efa9	-0.18060173
206	0x3d8df82d	0.069321014
207	0xbdd9ccf1	-0.106347926
208	0xbe045078	-0.12921321
209	0xbe187b6e	-0.14890835
210	0xbd652d11	-0.05595118
211	0xbd0ce10c	-0.03439431
212	0xbe1d3a52	-0.15354279
213	0xbe128d3a	-0.14311686
214	0xbdd47190	-0.10373223
215	0xbddb8720	-0.107191324
216	0xbd8e8b8f	-0.069602124
217	0xba430100	-0.00074388087
218	0x3d4a6796	0.049415193
219	0xbd65bb97	-0.056087103
220	0x3c271600	0.010198116
221	0xbd02c41a	-0.0319253
222	0xbc936420	-0.01799208
223	0xbcd15090	-0.02555111
224	0x3c4940d0	0.012283519
225	0x3cd29920	0.025707781
226	0xbcedea6e	-0.029042449
227	0xbd5cdd6e	-0.05392211
228	0xbda1a8d9	-0.07893533
229	0x3c9bd558	0.019022629
230	0x3c9d13d8	0.019174501
231	0xbd8b2a5b	-0.06795188
232	0xbe0afeb0	-0.13573718
233	0xbe13acf9	-0.14421453
234	0x3c1266c8	0.008935638
235	0xbda02213	-0.07818999
236	0xbd516d26	-0.051129483
237	0x3cbe282c	0.023212515
238	0xbdd9962a	-0.10624345
239	0xbe05227e	-0.13001439
240	0xbd606523	-0.05478395
241	0xbc9528dc	-0.01820796
242	0x3d9bfa72	0.07616128
243	0xbd10b5d7	-0.035329666
244	0xbbe6c8e0	-0.007042989
245	0xbd7ca244	-0.061678186
246	0xbe31e51e	-0.17372558
247	0xbdc4a1f5	-0.09601203
248	0xbe3361c4	-0.17517763
249	0xbe32b52f	-0.17451929
250	0xbdcd1cb8	-0.10015243
251	0x3c5f8078	0.013641469
252	0xbe345168	-0.17609179
253	0x3d03050e	0.031987242
254	0xbe12e56e	-0.14345333
255	0x3dd6545d	0.1046531

fc3.bias f4 [10]
0	0x3a613e00	0.00085923076
1	0xbe2a93dc	-0.16657966
2	0x3de07cce	0.109613046
3	0x3d4aad96	0.04948195
4	0x3dc66ea4	0.09689072
5	0x3d9e3d52	0.0772654
6	0x3e07d172	0.13263491
7	0xbdff780e	-0.124740705
8	0xbd5b6e2d	-0.05357187
9	0xbdebda62	-0.115162626
